node {
  name: "input_x"
  op: "Placeholder"
  attr {
    key: "dtype"
    value {
      type: DT_INT32
    }
  }
  attr {
    key: "shape"
    value {
      shape {
      }
    }
  }
}
node {
  name: "input_y0"
  op: "Placeholder"
  attr {
    key: "dtype"
    value {
      type: DT_FLOAT
    }
  }
  attr {
    key: "shape"
    value {
      shape {
      }
    }
  }
}
node {
  name: "input_y1"
  op: "Placeholder"
  attr {
    key: "dtype"
    value {
      type: DT_FLOAT
    }
  }
  attr {
    key: "shape"
    value {
      shape {
      }
    }
  }
}
node {
  name: "dropout_keep_prob"
  op: "Placeholder"
  attr {
    key: "dtype"
    value {
      type: DT_FLOAT
    }
  }
  attr {
    key: "shape"
    value {
      shape {
      }
    }
  }
}
node {
  name: "l2_loss0"
  op: "Const"
  attr {
    key: "dtype"
    value {
      type: DT_FLOAT
    }
  }
  attr {
    key: "value"
    value {
      tensor {
        dtype: DT_FLOAT
        tensor_shape {
        }
        float_val: 0.0
      }
    }
  }
}
node {
  name: "l2_loss1"
  op: "Const"
  attr {
    key: "dtype"
    value {
      type: DT_FLOAT
    }
  }
  attr {
    key: "value"
    value {
      tensor {
        dtype: DT_FLOAT
        tensor_shape {
        }
        float_val: 0.0
      }
    }
  }
}
node {
  name: "embedding/Const"
  op: "Const"
  device: "/device:CPU:0"
  attr {
    key: "dtype"
    value {
      type: DT_FLOAT
    }
  }
  attr {
    key: "value"
    value {
      tensor {
        dtype: DT_FLOAT
        tensor_shape {
          dim {
            size: 163229
          }
          dim {
            size: 300
          }
        }
        float_val: 0.0
      }
    }
  }
}
node {
  name: "embedding/W"
  op: "Variable"
  device: "/device:CPU:0"
  attr {
    key: "container"
    value {
      s: ""
    }
  }
  attr {
    key: "dtype"
    value {
      type: DT_FLOAT
    }
  }
  attr {
    key: "shape"
    value {
      shape {
        dim {
          size: 163229
        }
        dim {
          size: 300
        }
      }
    }
  }
  attr {
    key: "shared_name"
    value {
      s: ""
    }
  }
}
node {
  name: "embedding/W/Assign"
  op: "Assign"
  input: "embedding/W"
  input: "embedding/Const"
  device: "/device:CPU:0"
  attr {
    key: "T"
    value {
      type: DT_FLOAT
    }
  }
  attr {
    key: "_class"
    value {
      list {
        s: "loc:@embedding/W"
      }
    }
  }
  attr {
    key: "use_locking"
    value {
      b: true
    }
  }
  attr {
    key: "validate_shape"
    value {
      b: true
    }
  }
}
node {
  name: "embedding/W/read"
  op: "Identity"
  input: "embedding/W"
  device: "/device:CPU:0"
  attr {
    key: "T"
    value {
      type: DT_FLOAT
    }
  }
  attr {
    key: "_class"
    value {
      list {
        s: "loc:@embedding/W"
      }
    }
  }
}
node {
  name: "embedding/embedding_lookup"
  op: "Gather"
  input: "embedding/W/read"
  input: "input_x"
  device: "/device:CPU:0"
  attr {
    key: "Tindices"
    value {
      type: DT_INT32
    }
  }
  attr {
    key: "Tparams"
    value {
      type: DT_FLOAT
    }
  }
  attr {
    key: "_class"
    value {
      list {
        s: "loc:@embedding/W"
      }
    }
  }
  attr {
    key: "validate_indices"
    value {
      b: true
    }
  }
}
node {
  name: "embedding/ExpandDims/dim"
  op: "Const"
  device: "/device:CPU:0"
  attr {
    key: "dtype"
    value {
      type: DT_INT32
    }
  }
  attr {
    key: "value"
    value {
      tensor {
        dtype: DT_INT32
        tensor_shape {
        }
        int_val: -1
      }
    }
  }
}
node {
  name: "embedding/ExpandDims"
  op: "ExpandDims"
  input: "embedding/embedding_lookup"
  input: "embedding/ExpandDims/dim"
  device: "/device:CPU:0"
  attr {
    key: "T"
    value {
      type: DT_FLOAT
    }
  }
}
node {
  name: "conv-maxpool-2/truncated_normal/shape"
  op: "Const"
  attr {
    key: "dtype"
    value {
      type: DT_INT32
    }
  }
  attr {
    key: "value"
    value {
      tensor {
        dtype: DT_INT32
        tensor_shape {
          dim {
            size: 4
          }
        }
        tensor_content: "\002\000\000\000,\001\000\000\001\000\000\000\200\000\000\000"
      }
    }
  }
}
node {
  name: "conv-maxpool-2/truncated_normal/mean"
  op: "Const"
  attr {
    key: "dtype"
    value {
      type: DT_FLOAT
    }
  }
  attr {
    key: "value"
    value {
      tensor {
        dtype: DT_FLOAT
        tensor_shape {
        }
        float_val: 0.0
      }
    }
  }
}
node {
  name: "conv-maxpool-2/truncated_normal/stddev"
  op: "Const"
  attr {
    key: "dtype"
    value {
      type: DT_FLOAT
    }
  }
  attr {
    key: "value"
    value {
      tensor {
        dtype: DT_FLOAT
        tensor_shape {
        }
        float_val: 0.10000000149
      }
    }
  }
}
node {
  name: "conv-maxpool-2/truncated_normal/TruncatedNormal"
  op: "TruncatedNormal"
  input: "conv-maxpool-2/truncated_normal/shape"
  attr {
    key: "T"
    value {
      type: DT_INT32
    }
  }
  attr {
    key: "dtype"
    value {
      type: DT_FLOAT
    }
  }
  attr {
    key: "seed"
    value {
      i: 0
    }
  }
  attr {
    key: "seed2"
    value {
      i: 0
    }
  }
}
node {
  name: "conv-maxpool-2/truncated_normal/mul"
  op: "Mul"
  input: "conv-maxpool-2/truncated_normal/TruncatedNormal"
  input: "conv-maxpool-2/truncated_normal/stddev"
  attr {
    key: "T"
    value {
      type: DT_FLOAT
    }
  }
}
node {
  name: "conv-maxpool-2/truncated_normal"
  op: "Add"
  input: "conv-maxpool-2/truncated_normal/mul"
  input: "conv-maxpool-2/truncated_normal/mean"
  attr {
    key: "T"
    value {
      type: DT_FLOAT
    }
  }
}
node {
  name: "conv-maxpool-2/W"
  op: "Variable"
  attr {
    key: "container"
    value {
      s: ""
    }
  }
  attr {
    key: "dtype"
    value {
      type: DT_FLOAT
    }
  }
  attr {
    key: "shape"
    value {
      shape {
        dim {
          size: 2
        }
        dim {
          size: 300
        }
        dim {
          size: 1
        }
        dim {
          size: 128
        }
      }
    }
  }
  attr {
    key: "shared_name"
    value {
      s: ""
    }
  }
}
node {
  name: "conv-maxpool-2/W/Assign"
  op: "Assign"
  input: "conv-maxpool-2/W"
  input: "conv-maxpool-2/truncated_normal"
  attr {
    key: "T"
    value {
      type: DT_FLOAT
    }
  }
  attr {
    key: "_class"
    value {
      list {
        s: "loc:@conv-maxpool-2/W"
      }
    }
  }
  attr {
    key: "use_locking"
    value {
      b: true
    }
  }
  attr {
    key: "validate_shape"
    value {
      b: true
    }
  }
}
node {
  name: "conv-maxpool-2/W/read"
  op: "Identity"
  input: "conv-maxpool-2/W"
  attr {
    key: "T"
    value {
      type: DT_FLOAT
    }
  }
  attr {
    key: "_class"
    value {
      list {
        s: "loc:@conv-maxpool-2/W"
      }
    }
  }
}
node {
  name: "conv-maxpool-2/Const"
  op: "Const"
  attr {
    key: "dtype"
    value {
      type: DT_FLOAT
    }
  }
  attr {
    key: "value"
    value {
      tensor {
        dtype: DT_FLOAT
        tensor_shape {
          dim {
            size: 128
          }
        }
        float_val: 0.10000000149
      }
    }
  }
}
node {
  name: "conv-maxpool-2/b"
  op: "Variable"
  attr {
    key: "container"
    value {
      s: ""
    }
  }
  attr {
    key: "dtype"
    value {
      type: DT_FLOAT
    }
  }
  attr {
    key: "shape"
    value {
      shape {
        dim {
          size: 128
        }
      }
    }
  }
  attr {
    key: "shared_name"
    value {
      s: ""
    }
  }
}
node {
  name: "conv-maxpool-2/b/Assign"
  op: "Assign"
  input: "conv-maxpool-2/b"
  input: "conv-maxpool-2/Const"
  attr {
    key: "T"
    value {
      type: DT_FLOAT
    }
  }
  attr {
    key: "_class"
    value {
      list {
        s: "loc:@conv-maxpool-2/b"
      }
    }
  }
  attr {
    key: "use_locking"
    value {
      b: true
    }
  }
  attr {
    key: "validate_shape"
    value {
      b: true
    }
  }
}
node {
  name: "conv-maxpool-2/b/read"
  op: "Identity"
  input: "conv-maxpool-2/b"
  attr {
    key: "T"
    value {
      type: DT_FLOAT
    }
  }
  attr {
    key: "_class"
    value {
      list {
        s: "loc:@conv-maxpool-2/b"
      }
    }
  }
}
node {
  name: "conv-maxpool-2/conv"
  op: "Conv2D"
  input: "embedding/ExpandDims"
  input: "conv-maxpool-2/W/read"
  attr {
    key: "T"
    value {
      type: DT_FLOAT
    }
  }
  attr {
    key: "data_format"
    value {
      s: "NHWC"
    }
  }
  attr {
    key: "padding"
    value {
      s: "VALID"
    }
  }
  attr {
    key: "strides"
    value {
      list {
        i: 1
        i: 1
        i: 1
        i: 1
      }
    }
  }
  attr {
    key: "use_cudnn_on_gpu"
    value {
      b: true
    }
  }
}
node {
  name: "conv-maxpool-2/BiasAdd"
  op: "BiasAdd"
  input: "conv-maxpool-2/conv"
  input: "conv-maxpool-2/b/read"
  attr {
    key: "T"
    value {
      type: DT_FLOAT
    }
  }
  attr {
    key: "data_format"
    value {
      s: "NHWC"
    }
  }
}
node {
  name: "conv-maxpool-2/relu"
  op: "Relu"
  input: "conv-maxpool-2/BiasAdd"
  attr {
    key: "T"
    value {
      type: DT_FLOAT
    }
  }
}
node {
  name: "conv-maxpool-2/pool"
  op: "MaxPool"
  input: "conv-maxpool-2/relu"
  attr {
    key: "T"
    value {
      type: DT_FLOAT
    }
  }
  attr {
    key: "data_format"
    value {
      s: "NHWC"
    }
  }
  attr {
    key: "ksize"
    value {
      list {
        i: 1
        i: 99
        i: 1
        i: 1
      }
    }
  }
  attr {
    key: "padding"
    value {
      s: "VALID"
    }
  }
  attr {
    key: "strides"
    value {
      list {
        i: 1
        i: 1
        i: 1
        i: 1
      }
    }
  }
}
node {
  name: "conv-maxpool-3/truncated_normal/shape"
  op: "Const"
  attr {
    key: "dtype"
    value {
      type: DT_INT32
    }
  }
  attr {
    key: "value"
    value {
      tensor {
        dtype: DT_INT32
        tensor_shape {
          dim {
            size: 4
          }
        }
        tensor_content: "\003\000\000\000,\001\000\000\001\000\000\000\200\000\000\000"
      }
    }
  }
}
node {
  name: "conv-maxpool-3/truncated_normal/mean"
  op: "Const"
  attr {
    key: "dtype"
    value {
      type: DT_FLOAT
    }
  }
  attr {
    key: "value"
    value {
      tensor {
        dtype: DT_FLOAT
        tensor_shape {
        }
        float_val: 0.0
      }
    }
  }
}
node {
  name: "conv-maxpool-3/truncated_normal/stddev"
  op: "Const"
  attr {
    key: "dtype"
    value {
      type: DT_FLOAT
    }
  }
  attr {
    key: "value"
    value {
      tensor {
        dtype: DT_FLOAT
        tensor_shape {
        }
        float_val: 0.10000000149
      }
    }
  }
}
node {
  name: "conv-maxpool-3/truncated_normal/TruncatedNormal"
  op: "TruncatedNormal"
  input: "conv-maxpool-3/truncated_normal/shape"
  attr {
    key: "T"
    value {
      type: DT_INT32
    }
  }
  attr {
    key: "dtype"
    value {
      type: DT_FLOAT
    }
  }
  attr {
    key: "seed"
    value {
      i: 0
    }
  }
  attr {
    key: "seed2"
    value {
      i: 0
    }
  }
}
node {
  name: "conv-maxpool-3/truncated_normal/mul"
  op: "Mul"
  input: "conv-maxpool-3/truncated_normal/TruncatedNormal"
  input: "conv-maxpool-3/truncated_normal/stddev"
  attr {
    key: "T"
    value {
      type: DT_FLOAT
    }
  }
}
node {
  name: "conv-maxpool-3/truncated_normal"
  op: "Add"
  input: "conv-maxpool-3/truncated_normal/mul"
  input: "conv-maxpool-3/truncated_normal/mean"
  attr {
    key: "T"
    value {
      type: DT_FLOAT
    }
  }
}
node {
  name: "conv-maxpool-3/W"
  op: "Variable"
  attr {
    key: "container"
    value {
      s: ""
    }
  }
  attr {
    key: "dtype"
    value {
      type: DT_FLOAT
    }
  }
  attr {
    key: "shape"
    value {
      shape {
        dim {
          size: 3
        }
        dim {
          size: 300
        }
        dim {
          size: 1
        }
        dim {
          size: 128
        }
      }
    }
  }
  attr {
    key: "shared_name"
    value {
      s: ""
    }
  }
}
node {
  name: "conv-maxpool-3/W/Assign"
  op: "Assign"
  input: "conv-maxpool-3/W"
  input: "conv-maxpool-3/truncated_normal"
  attr {
    key: "T"
    value {
      type: DT_FLOAT
    }
  }
  attr {
    key: "_class"
    value {
      list {
        s: "loc:@conv-maxpool-3/W"
      }
    }
  }
  attr {
    key: "use_locking"
    value {
      b: true
    }
  }
  attr {
    key: "validate_shape"
    value {
      b: true
    }
  }
}
node {
  name: "conv-maxpool-3/W/read"
  op: "Identity"
  input: "conv-maxpool-3/W"
  attr {
    key: "T"
    value {
      type: DT_FLOAT
    }
  }
  attr {
    key: "_class"
    value {
      list {
        s: "loc:@conv-maxpool-3/W"
      }
    }
  }
}
node {
  name: "conv-maxpool-3/Const"
  op: "Const"
  attr {
    key: "dtype"
    value {
      type: DT_FLOAT
    }
  }
  attr {
    key: "value"
    value {
      tensor {
        dtype: DT_FLOAT
        tensor_shape {
          dim {
            size: 128
          }
        }
        float_val: 0.10000000149
      }
    }
  }
}
node {
  name: "conv-maxpool-3/b"
  op: "Variable"
  attr {
    key: "container"
    value {
      s: ""
    }
  }
  attr {
    key: "dtype"
    value {
      type: DT_FLOAT
    }
  }
  attr {
    key: "shape"
    value {
      shape {
        dim {
          size: 128
        }
      }
    }
  }
  attr {
    key: "shared_name"
    value {
      s: ""
    }
  }
}
node {
  name: "conv-maxpool-3/b/Assign"
  op: "Assign"
  input: "conv-maxpool-3/b"
  input: "conv-maxpool-3/Const"
  attr {
    key: "T"
    value {
      type: DT_FLOAT
    }
  }
  attr {
    key: "_class"
    value {
      list {
        s: "loc:@conv-maxpool-3/b"
      }
    }
  }
  attr {
    key: "use_locking"
    value {
      b: true
    }
  }
  attr {
    key: "validate_shape"
    value {
      b: true
    }
  }
}
node {
  name: "conv-maxpool-3/b/read"
  op: "Identity"
  input: "conv-maxpool-3/b"
  attr {
    key: "T"
    value {
      type: DT_FLOAT
    }
  }
  attr {
    key: "_class"
    value {
      list {
        s: "loc:@conv-maxpool-3/b"
      }
    }
  }
}
node {
  name: "conv-maxpool-3/conv"
  op: "Conv2D"
  input: "embedding/ExpandDims"
  input: "conv-maxpool-3/W/read"
  attr {
    key: "T"
    value {
      type: DT_FLOAT
    }
  }
  attr {
    key: "data_format"
    value {
      s: "NHWC"
    }
  }
  attr {
    key: "padding"
    value {
      s: "VALID"
    }
  }
  attr {
    key: "strides"
    value {
      list {
        i: 1
        i: 1
        i: 1
        i: 1
      }
    }
  }
  attr {
    key: "use_cudnn_on_gpu"
    value {
      b: true
    }
  }
}
node {
  name: "conv-maxpool-3/BiasAdd"
  op: "BiasAdd"
  input: "conv-maxpool-3/conv"
  input: "conv-maxpool-3/b/read"
  attr {
    key: "T"
    value {
      type: DT_FLOAT
    }
  }
  attr {
    key: "data_format"
    value {
      s: "NHWC"
    }
  }
}
node {
  name: "conv-maxpool-3/relu"
  op: "Relu"
  input: "conv-maxpool-3/BiasAdd"
  attr {
    key: "T"
    value {
      type: DT_FLOAT
    }
  }
}
node {
  name: "conv-maxpool-3/pool"
  op: "MaxPool"
  input: "conv-maxpool-3/relu"
  attr {
    key: "T"
    value {
      type: DT_FLOAT
    }
  }
  attr {
    key: "data_format"
    value {
      s: "NHWC"
    }
  }
  attr {
    key: "ksize"
    value {
      list {
        i: 1
        i: 98
        i: 1
        i: 1
      }
    }
  }
  attr {
    key: "padding"
    value {
      s: "VALID"
    }
  }
  attr {
    key: "strides"
    value {
      list {
        i: 1
        i: 1
        i: 1
        i: 1
      }
    }
  }
}
node {
  name: "conv-maxpool-4/truncated_normal/shape"
  op: "Const"
  attr {
    key: "dtype"
    value {
      type: DT_INT32
    }
  }
  attr {
    key: "value"
    value {
      tensor {
        dtype: DT_INT32
        tensor_shape {
          dim {
            size: 4
          }
        }
        tensor_content: "\004\000\000\000,\001\000\000\001\000\000\000\200\000\000\000"
      }
    }
  }
}
node {
  name: "conv-maxpool-4/truncated_normal/mean"
  op: "Const"
  attr {
    key: "dtype"
    value {
      type: DT_FLOAT
    }
  }
  attr {
    key: "value"
    value {
      tensor {
        dtype: DT_FLOAT
        tensor_shape {
        }
        float_val: 0.0
      }
    }
  }
}
node {
  name: "conv-maxpool-4/truncated_normal/stddev"
  op: "Const"
  attr {
    key: "dtype"
    value {
      type: DT_FLOAT
    }
  }
  attr {
    key: "value"
    value {
      tensor {
        dtype: DT_FLOAT
        tensor_shape {
        }
        float_val: 0.10000000149
      }
    }
  }
}
node {
  name: "conv-maxpool-4/truncated_normal/TruncatedNormal"
  op: "TruncatedNormal"
  input: "conv-maxpool-4/truncated_normal/shape"
  attr {
    key: "T"
    value {
      type: DT_INT32
    }
  }
  attr {
    key: "dtype"
    value {
      type: DT_FLOAT
    }
  }
  attr {
    key: "seed"
    value {
      i: 0
    }
  }
  attr {
    key: "seed2"
    value {
      i: 0
    }
  }
}
node {
  name: "conv-maxpool-4/truncated_normal/mul"
  op: "Mul"
  input: "conv-maxpool-4/truncated_normal/TruncatedNormal"
  input: "conv-maxpool-4/truncated_normal/stddev"
  attr {
    key: "T"
    value {
      type: DT_FLOAT
    }
  }
}
node {
  name: "conv-maxpool-4/truncated_normal"
  op: "Add"
  input: "conv-maxpool-4/truncated_normal/mul"
  input: "conv-maxpool-4/truncated_normal/mean"
  attr {
    key: "T"
    value {
      type: DT_FLOAT
    }
  }
}
node {
  name: "conv-maxpool-4/W"
  op: "Variable"
  attr {
    key: "container"
    value {
      s: ""
    }
  }
  attr {
    key: "dtype"
    value {
      type: DT_FLOAT
    }
  }
  attr {
    key: "shape"
    value {
      shape {
        dim {
          size: 4
        }
        dim {
          size: 300
        }
        dim {
          size: 1
        }
        dim {
          size: 128
        }
      }
    }
  }
  attr {
    key: "shared_name"
    value {
      s: ""
    }
  }
}
node {
  name: "conv-maxpool-4/W/Assign"
  op: "Assign"
  input: "conv-maxpool-4/W"
  input: "conv-maxpool-4/truncated_normal"
  attr {
    key: "T"
    value {
      type: DT_FLOAT
    }
  }
  attr {
    key: "_class"
    value {
      list {
        s: "loc:@conv-maxpool-4/W"
      }
    }
  }
  attr {
    key: "use_locking"
    value {
      b: true
    }
  }
  attr {
    key: "validate_shape"
    value {
      b: true
    }
  }
}
node {
  name: "conv-maxpool-4/W/read"
  op: "Identity"
  input: "conv-maxpool-4/W"
  attr {
    key: "T"
    value {
      type: DT_FLOAT
    }
  }
  attr {
    key: "_class"
    value {
      list {
        s: "loc:@conv-maxpool-4/W"
      }
    }
  }
}
node {
  name: "conv-maxpool-4/Const"
  op: "Const"
  attr {
    key: "dtype"
    value {
      type: DT_FLOAT
    }
  }
  attr {
    key: "value"
    value {
      tensor {
        dtype: DT_FLOAT
        tensor_shape {
          dim {
            size: 128
          }
        }
        float_val: 0.10000000149
      }
    }
  }
}
node {
  name: "conv-maxpool-4/b"
  op: "Variable"
  attr {
    key: "container"
    value {
      s: ""
    }
  }
  attr {
    key: "dtype"
    value {
      type: DT_FLOAT
    }
  }
  attr {
    key: "shape"
    value {
      shape {
        dim {
          size: 128
        }
      }
    }
  }
  attr {
    key: "shared_name"
    value {
      s: ""
    }
  }
}
node {
  name: "conv-maxpool-4/b/Assign"
  op: "Assign"
  input: "conv-maxpool-4/b"
  input: "conv-maxpool-4/Const"
  attr {
    key: "T"
    value {
      type: DT_FLOAT
    }
  }
  attr {
    key: "_class"
    value {
      list {
        s: "loc:@conv-maxpool-4/b"
      }
    }
  }
  attr {
    key: "use_locking"
    value {
      b: true
    }
  }
  attr {
    key: "validate_shape"
    value {
      b: true
    }
  }
}
node {
  name: "conv-maxpool-4/b/read"
  op: "Identity"
  input: "conv-maxpool-4/b"
  attr {
    key: "T"
    value {
      type: DT_FLOAT
    }
  }
  attr {
    key: "_class"
    value {
      list {
        s: "loc:@conv-maxpool-4/b"
      }
    }
  }
}
node {
  name: "conv-maxpool-4/conv"
  op: "Conv2D"
  input: "embedding/ExpandDims"
  input: "conv-maxpool-4/W/read"
  attr {
    key: "T"
    value {
      type: DT_FLOAT
    }
  }
  attr {
    key: "data_format"
    value {
      s: "NHWC"
    }
  }
  attr {
    key: "padding"
    value {
      s: "VALID"
    }
  }
  attr {
    key: "strides"
    value {
      list {
        i: 1
        i: 1
        i: 1
        i: 1
      }
    }
  }
  attr {
    key: "use_cudnn_on_gpu"
    value {
      b: true
    }
  }
}
node {
  name: "conv-maxpool-4/BiasAdd"
  op: "BiasAdd"
  input: "conv-maxpool-4/conv"
  input: "conv-maxpool-4/b/read"
  attr {
    key: "T"
    value {
      type: DT_FLOAT
    }
  }
  attr {
    key: "data_format"
    value {
      s: "NHWC"
    }
  }
}
node {
  name: "conv-maxpool-4/relu"
  op: "Relu"
  input: "conv-maxpool-4/BiasAdd"
  attr {
    key: "T"
    value {
      type: DT_FLOAT
    }
  }
}
node {
  name: "conv-maxpool-4/pool"
  op: "MaxPool"
  input: "conv-maxpool-4/relu"
  attr {
    key: "T"
    value {
      type: DT_FLOAT
    }
  }
  attr {
    key: "data_format"
    value {
      s: "NHWC"
    }
  }
  attr {
    key: "ksize"
    value {
      list {
        i: 1
        i: 97
        i: 1
        i: 1
      }
    }
  }
  attr {
    key: "padding"
    value {
      s: "VALID"
    }
  }
  attr {
    key: "strides"
    value {
      list {
        i: 1
        i: 1
        i: 1
        i: 1
      }
    }
  }
}
node {
  name: "concat/concat_dim"
  op: "Const"
  attr {
    key: "dtype"
    value {
      type: DT_INT32
    }
  }
  attr {
    key: "value"
    value {
      tensor {
        dtype: DT_INT32
        tensor_shape {
        }
        int_val: 3
      }
    }
  }
}
node {
  name: "concat"
  op: "Concat"
  input: "concat/concat_dim"
  input: "conv-maxpool-2/pool"
  input: "conv-maxpool-3/pool"
  input: "conv-maxpool-4/pool"
  attr {
    key: "N"
    value {
      i: 3
    }
  }
  attr {
    key: "T"
    value {
      type: DT_FLOAT
    }
  }
}
node {
  name: "Reshape/shape"
  op: "Const"
  attr {
    key: "dtype"
    value {
      type: DT_INT32
    }
  }
  attr {
    key: "value"
    value {
      tensor {
        dtype: DT_INT32
        tensor_shape {
          dim {
            size: 2
          }
        }
        tensor_content: "\377\377\377\377\200\001\000\000"
      }
    }
  }
}
node {
  name: "Reshape"
  op: "Reshape"
  input: "concat"
  input: "Reshape/shape"
  attr {
    key: "T"
    value {
      type: DT_FLOAT
    }
  }
}
node {
  name: "dropout/dropout/Shape"
  op: "Shape"
  input: "Reshape"
  attr {
    key: "T"
    value {
      type: DT_FLOAT
    }
  }
}
node {
  name: "dropout/dropout/random_uniform/min"
  op: "Const"
  attr {
    key: "dtype"
    value {
      type: DT_FLOAT
    }
  }
  attr {
    key: "value"
    value {
      tensor {
        dtype: DT_FLOAT
        tensor_shape {
        }
        float_val: 0.0
      }
    }
  }
}
node {
  name: "dropout/dropout/random_uniform/max"
  op: "Const"
  attr {
    key: "dtype"
    value {
      type: DT_FLOAT
    }
  }
  attr {
    key: "value"
    value {
      tensor {
        dtype: DT_FLOAT
        tensor_shape {
        }
        float_val: 1.0
      }
    }
  }
}
node {
  name: "dropout/dropout/random_uniform/RandomUniform"
  op: "RandomUniform"
  input: "dropout/dropout/Shape"
  attr {
    key: "T"
    value {
      type: DT_INT32
    }
  }
  attr {
    key: "dtype"
    value {
      type: DT_FLOAT
    }
  }
  attr {
    key: "seed"
    value {
      i: 0
    }
  }
  attr {
    key: "seed2"
    value {
      i: 0
    }
  }
}
node {
  name: "dropout/dropout/random_uniform/sub"
  op: "Sub"
  input: "dropout/dropout/random_uniform/max"
  input: "dropout/dropout/random_uniform/min"
  attr {
    key: "T"
    value {
      type: DT_FLOAT
    }
  }
}
node {
  name: "dropout/dropout/random_uniform/mul"
  op: "Mul"
  input: "dropout/dropout/random_uniform/RandomUniform"
  input: "dropout/dropout/random_uniform/sub"
  attr {
    key: "T"
    value {
      type: DT_FLOAT
    }
  }
}
node {
  name: "dropout/dropout/random_uniform"
  op: "Add"
  input: "dropout/dropout/random_uniform/mul"
  input: "dropout/dropout/random_uniform/min"
  attr {
    key: "T"
    value {
      type: DT_FLOAT
    }
  }
}
node {
  name: "dropout/dropout/add"
  op: "Add"
  input: "dropout_keep_prob"
  input: "dropout/dropout/random_uniform"
  attr {
    key: "T"
    value {
      type: DT_FLOAT
    }
  }
}
node {
  name: "dropout/dropout/Floor"
  op: "Floor"
  input: "dropout/dropout/add"
  attr {
    key: "T"
    value {
      type: DT_FLOAT
    }
  }
}
node {
  name: "dropout/dropout/Div"
  op: "Div"
  input: "Reshape"
  input: "dropout_keep_prob"
  attr {
    key: "T"
    value {
      type: DT_FLOAT
    }
  }
}
node {
  name: "dropout/dropout/mul"
  op: "Mul"
  input: "dropout/dropout/Div"
  input: "dropout/dropout/Floor"
  attr {
    key: "T"
    value {
      type: DT_FLOAT
    }
  }
}
node {
  name: "W0"
  op: "Variable"
  attr {
    key: "container"
    value {
      s: ""
    }
  }
  attr {
    key: "dtype"
    value {
      type: DT_FLOAT
    }
  }
  attr {
    key: "shape"
    value {
      shape {
        dim {
          size: 384
        }
        dim {
          size: 50
        }
      }
    }
  }
  attr {
    key: "shared_name"
    value {
      s: ""
    }
  }
}
node {
  name: "W0/Initializer/random_uniform/shape"
  op: "Const"
  attr {
    key: "_class"
    value {
      list {
        s: "loc:@W0"
      }
    }
  }
  attr {
    key: "dtype"
    value {
      type: DT_INT32
    }
  }
  attr {
    key: "value"
    value {
      tensor {
        dtype: DT_INT32
        tensor_shape {
          dim {
            size: 2
          }
        }
        tensor_content: "\200\001\000\0002\000\000\000"
      }
    }
  }
}
node {
  name: "W0/Initializer/random_uniform/min"
  op: "Const"
  attr {
    key: "_class"
    value {
      list {
        s: "loc:@W0"
      }
    }
  }
  attr {
    key: "dtype"
    value {
      type: DT_FLOAT
    }
  }
  attr {
    key: "value"
    value {
      tensor {
        dtype: DT_FLOAT
        tensor_shape {
        }
        float_val: -0.11757927388
      }
    }
  }
}
node {
  name: "W0/Initializer/random_uniform/max"
  op: "Const"
  attr {
    key: "_class"
    value {
      list {
        s: "loc:@W0"
      }
    }
  }
  attr {
    key: "dtype"
    value {
      type: DT_FLOAT
    }
  }
  attr {
    key: "value"
    value {
      tensor {
        dtype: DT_FLOAT
        tensor_shape {
        }
        float_val: 0.11757927388
      }
    }
  }
}
node {
  name: "W0/Initializer/random_uniform/RandomUniform"
  op: "RandomUniform"
  input: "W0/Initializer/random_uniform/shape"
  attr {
    key: "T"
    value {
      type: DT_INT32
    }
  }
  attr {
    key: "_class"
    value {
      list {
        s: "loc:@W0"
      }
    }
  }
  attr {
    key: "dtype"
    value {
      type: DT_FLOAT
    }
  }
  attr {
    key: "seed"
    value {
      i: 0
    }
  }
  attr {
    key: "seed2"
    value {
      i: 0
    }
  }
}
node {
  name: "W0/Initializer/random_uniform/sub"
  op: "Sub"
  input: "W0/Initializer/random_uniform/max"
  input: "W0/Initializer/random_uniform/min"
  attr {
    key: "T"
    value {
      type: DT_FLOAT
    }
  }
  attr {
    key: "_class"
    value {
      list {
        s: "loc:@W0"
      }
    }
  }
}
node {
  name: "W0/Initializer/random_uniform/mul"
  op: "Mul"
  input: "W0/Initializer/random_uniform/RandomUniform"
  input: "W0/Initializer/random_uniform/sub"
  attr {
    key: "T"
    value {
      type: DT_FLOAT
    }
  }
  attr {
    key: "_class"
    value {
      list {
        s: "loc:@W0"
      }
    }
  }
}
node {
  name: "W0/Initializer/random_uniform"
  op: "Add"
  input: "W0/Initializer/random_uniform/mul"
  input: "W0/Initializer/random_uniform/min"
  attr {
    key: "T"
    value {
      type: DT_FLOAT
    }
  }
  attr {
    key: "_class"
    value {
      list {
        s: "loc:@W0"
      }
    }
  }
}
node {
  name: "W0/Assign"
  op: "Assign"
  input: "W0"
  input: "W0/Initializer/random_uniform"
  attr {
    key: "T"
    value {
      type: DT_FLOAT
    }
  }
  attr {
    key: "_class"
    value {
      list {
        s: "loc:@W0"
      }
    }
  }
  attr {
    key: "use_locking"
    value {
      b: true
    }
  }
  attr {
    key: "validate_shape"
    value {
      b: true
    }
  }
}
node {
  name: "W0/read"
  op: "Identity"
  input: "W0"
  attr {
    key: "T"
    value {
      type: DT_FLOAT
    }
  }
  attr {
    key: "_class"
    value {
      list {
        s: "loc:@W0"
      }
    }
  }
}
node {
  name: "output0/Const"
  op: "Const"
  attr {
    key: "dtype"
    value {
      type: DT_FLOAT
    }
  }
  attr {
    key: "value"
    value {
      tensor {
        dtype: DT_FLOAT
        tensor_shape {
          dim {
            size: 50
          }
        }
        float_val: 0.10000000149
      }
    }
  }
}
node {
  name: "output0/b0"
  op: "Variable"
  attr {
    key: "container"
    value {
      s: ""
    }
  }
  attr {
    key: "dtype"
    value {
      type: DT_FLOAT
    }
  }
  attr {
    key: "shape"
    value {
      shape {
        dim {
          size: 50
        }
      }
    }
  }
  attr {
    key: "shared_name"
    value {
      s: ""
    }
  }
}
node {
  name: "output0/b0/Assign"
  op: "Assign"
  input: "output0/b0"
  input: "output0/Const"
  attr {
    key: "T"
    value {
      type: DT_FLOAT
    }
  }
  attr {
    key: "_class"
    value {
      list {
        s: "loc:@output0/b0"
      }
    }
  }
  attr {
    key: "use_locking"
    value {
      b: true
    }
  }
  attr {
    key: "validate_shape"
    value {
      b: true
    }
  }
}
node {
  name: "output0/b0/read"
  op: "Identity"
  input: "output0/b0"
  attr {
    key: "T"
    value {
      type: DT_FLOAT
    }
  }
  attr {
    key: "_class"
    value {
      list {
        s: "loc:@output0/b0"
      }
    }
  }
}
node {
  name: "output0/L2Loss"
  op: "L2Loss"
  input: "W0/read"
  attr {
    key: "T"
    value {
      type: DT_FLOAT
    }
  }
}
node {
  name: "output0/add"
  op: "Add"
  input: "l2_loss0"
  input: "output0/L2Loss"
  attr {
    key: "T"
    value {
      type: DT_FLOAT
    }
  }
}
node {
  name: "output0/L2Loss_1"
  op: "L2Loss"
  input: "output0/b0/read"
  attr {
    key: "T"
    value {
      type: DT_FLOAT
    }
  }
}
node {
  name: "output0/add_1"
  op: "Add"
  input: "output0/add"
  input: "output0/L2Loss_1"
  attr {
    key: "T"
    value {
      type: DT_FLOAT
    }
  }
}
node {
  name: "output0/MatMul"
  op: "MatMul"
  input: "dropout/dropout/mul"
  input: "W0/read"
  attr {
    key: "T"
    value {
      type: DT_FLOAT
    }
  }
  attr {
    key: "transpose_a"
    value {
      b: false
    }
  }
  attr {
    key: "transpose_b"
    value {
      b: false
    }
  }
}
node {
  name: "output0/BiasAdd"
  op: "BiasAdd"
  input: "output0/MatMul"
  input: "output0/b0/read"
  attr {
    key: "T"
    value {
      type: DT_FLOAT
    }
  }
  attr {
    key: "data_format"
    value {
      s: "NHWC"
    }
  }
}
node {
  name: "output0/Sigmoid"
  op: "Sigmoid"
  input: "output0/BiasAdd"
  attr {
    key: "T"
    value {
      type: DT_FLOAT
    }
  }
}
node {
  name: "output0/dropout/Shape"
  op: "Shape"
  input: "output0/Sigmoid"
  attr {
    key: "T"
    value {
      type: DT_FLOAT
    }
  }
}
node {
  name: "output0/dropout/random_uniform/min"
  op: "Const"
  attr {
    key: "dtype"
    value {
      type: DT_FLOAT
    }
  }
  attr {
    key: "value"
    value {
      tensor {
        dtype: DT_FLOAT
        tensor_shape {
        }
        float_val: 0.0
      }
    }
  }
}
node {
  name: "output0/dropout/random_uniform/max"
  op: "Const"
  attr {
    key: "dtype"
    value {
      type: DT_FLOAT
    }
  }
  attr {
    key: "value"
    value {
      tensor {
        dtype: DT_FLOAT
        tensor_shape {
        }
        float_val: 1.0
      }
    }
  }
}
node {
  name: "output0/dropout/random_uniform/RandomUniform"
  op: "RandomUniform"
  input: "output0/dropout/Shape"
  attr {
    key: "T"
    value {
      type: DT_INT32
    }
  }
  attr {
    key: "dtype"
    value {
      type: DT_FLOAT
    }
  }
  attr {
    key: "seed"
    value {
      i: 0
    }
  }
  attr {
    key: "seed2"
    value {
      i: 0
    }
  }
}
node {
  name: "output0/dropout/random_uniform/sub"
  op: "Sub"
  input: "output0/dropout/random_uniform/max"
  input: "output0/dropout/random_uniform/min"
  attr {
    key: "T"
    value {
      type: DT_FLOAT
    }
  }
}
node {
  name: "output0/dropout/random_uniform/mul"
  op: "Mul"
  input: "output0/dropout/random_uniform/RandomUniform"
  input: "output0/dropout/random_uniform/sub"
  attr {
    key: "T"
    value {
      type: DT_FLOAT
    }
  }
}
node {
  name: "output0/dropout/random_uniform"
  op: "Add"
  input: "output0/dropout/random_uniform/mul"
  input: "output0/dropout/random_uniform/min"
  attr {
    key: "T"
    value {
      type: DT_FLOAT
    }
  }
}
node {
  name: "output0/dropout/add"
  op: "Add"
  input: "dropout_keep_prob"
  input: "output0/dropout/random_uniform"
  attr {
    key: "T"
    value {
      type: DT_FLOAT
    }
  }
}
node {
  name: "output0/dropout/Floor"
  op: "Floor"
  input: "output0/dropout/add"
  attr {
    key: "T"
    value {
      type: DT_FLOAT
    }
  }
}
node {
  name: "output0/dropout/Div"
  op: "Div"
  input: "output0/Sigmoid"
  input: "dropout_keep_prob"
  attr {
    key: "T"
    value {
      type: DT_FLOAT
    }
  }
}
node {
  name: "output0/dropout/mul"
  op: "Mul"
  input: "output0/dropout/Div"
  input: "output0/dropout/Floor"
  attr {
    key: "T"
    value {
      type: DT_FLOAT
    }
  }
}
node {
  name: "W20"
  op: "Variable"
  attr {
    key: "container"
    value {
      s: ""
    }
  }
  attr {
    key: "dtype"
    value {
      type: DT_FLOAT
    }
  }
  attr {
    key: "shape"
    value {
      shape {
        dim {
          size: 50
        }
        dim {
          size: 2
        }
      }
    }
  }
  attr {
    key: "shared_name"
    value {
      s: ""
    }
  }
}
node {
  name: "W20/Initializer/random_uniform/shape"
  op: "Const"
  attr {
    key: "_class"
    value {
      list {
        s: "loc:@W20"
      }
    }
  }
  attr {
    key: "dtype"
    value {
      type: DT_INT32
    }
  }
  attr {
    key: "value"
    value {
      tensor {
        dtype: DT_INT32
        tensor_shape {
          dim {
            size: 2
          }
        }
        tensor_content: "2\000\000\000\002\000\000\000"
      }
    }
  }
}
node {
  name: "W20/Initializer/random_uniform/min"
  op: "Const"
  attr {
    key: "_class"
    value {
      list {
        s: "loc:@W20"
      }
    }
  }
  attr {
    key: "dtype"
    value {
      type: DT_FLOAT
    }
  }
  attr {
    key: "value"
    value {
      tensor {
        dtype: DT_FLOAT
        tensor_shape {
        }
        float_val: -0.339683115482
      }
    }
  }
}
node {
  name: "W20/Initializer/random_uniform/max"
  op: "Const"
  attr {
    key: "_class"
    value {
      list {
        s: "loc:@W20"
      }
    }
  }
  attr {
    key: "dtype"
    value {
      type: DT_FLOAT
    }
  }
  attr {
    key: "value"
    value {
      tensor {
        dtype: DT_FLOAT
        tensor_shape {
        }
        float_val: 0.339683115482
      }
    }
  }
}
node {
  name: "W20/Initializer/random_uniform/RandomUniform"
  op: "RandomUniform"
  input: "W20/Initializer/random_uniform/shape"
  attr {
    key: "T"
    value {
      type: DT_INT32
    }
  }
  attr {
    key: "_class"
    value {
      list {
        s: "loc:@W20"
      }
    }
  }
  attr {
    key: "dtype"
    value {
      type: DT_FLOAT
    }
  }
  attr {
    key: "seed"
    value {
      i: 0
    }
  }
  attr {
    key: "seed2"
    value {
      i: 0
    }
  }
}
node {
  name: "W20/Initializer/random_uniform/sub"
  op: "Sub"
  input: "W20/Initializer/random_uniform/max"
  input: "W20/Initializer/random_uniform/min"
  attr {
    key: "T"
    value {
      type: DT_FLOAT
    }
  }
  attr {
    key: "_class"
    value {
      list {
        s: "loc:@W20"
      }
    }
  }
}
node {
  name: "W20/Initializer/random_uniform/mul"
  op: "Mul"
  input: "W20/Initializer/random_uniform/RandomUniform"
  input: "W20/Initializer/random_uniform/sub"
  attr {
    key: "T"
    value {
      type: DT_FLOAT
    }
  }
  attr {
    key: "_class"
    value {
      list {
        s: "loc:@W20"
      }
    }
  }
}
node {
  name: "W20/Initializer/random_uniform"
  op: "Add"
  input: "W20/Initializer/random_uniform/mul"
  input: "W20/Initializer/random_uniform/min"
  attr {
    key: "T"
    value {
      type: DT_FLOAT
    }
  }
  attr {
    key: "_class"
    value {
      list {
        s: "loc:@W20"
      }
    }
  }
}
node {
  name: "W20/Assign"
  op: "Assign"
  input: "W20"
  input: "W20/Initializer/random_uniform"
  attr {
    key: "T"
    value {
      type: DT_FLOAT
    }
  }
  attr {
    key: "_class"
    value {
      list {
        s: "loc:@W20"
      }
    }
  }
  attr {
    key: "use_locking"
    value {
      b: true
    }
  }
  attr {
    key: "validate_shape"
    value {
      b: true
    }
  }
}
node {
  name: "W20/read"
  op: "Identity"
  input: "W20"
  attr {
    key: "T"
    value {
      type: DT_FLOAT
    }
  }
  attr {
    key: "_class"
    value {
      list {
        s: "loc:@W20"
      }
    }
  }
}
node {
  name: "output0/Const_1"
  op: "Const"
  attr {
    key: "dtype"
    value {
      type: DT_FLOAT
    }
  }
  attr {
    key: "value"
    value {
      tensor {
        dtype: DT_FLOAT
        tensor_shape {
          dim {
            size: 2
          }
        }
        float_val: 0.10000000149
      }
    }
  }
}
node {
  name: "output0/b20"
  op: "Variable"
  attr {
    key: "container"
    value {
      s: ""
    }
  }
  attr {
    key: "dtype"
    value {
      type: DT_FLOAT
    }
  }
  attr {
    key: "shape"
    value {
      shape {
        dim {
          size: 2
        }
      }
    }
  }
  attr {
    key: "shared_name"
    value {
      s: ""
    }
  }
}
node {
  name: "output0/b20/Assign"
  op: "Assign"
  input: "output0/b20"
  input: "output0/Const_1"
  attr {
    key: "T"
    value {
      type: DT_FLOAT
    }
  }
  attr {
    key: "_class"
    value {
      list {
        s: "loc:@output0/b20"
      }
    }
  }
  attr {
    key: "use_locking"
    value {
      b: true
    }
  }
  attr {
    key: "validate_shape"
    value {
      b: true
    }
  }
}
node {
  name: "output0/b20/read"
  op: "Identity"
  input: "output0/b20"
  attr {
    key: "T"
    value {
      type: DT_FLOAT
    }
  }
  attr {
    key: "_class"
    value {
      list {
        s: "loc:@output0/b20"
      }
    }
  }
}
node {
  name: "output0/L2Loss_2"
  op: "L2Loss"
  input: "W20/read"
  attr {
    key: "T"
    value {
      type: DT_FLOAT
    }
  }
}
node {
  name: "output0/add_2"
  op: "Add"
  input: "output0/add_1"
  input: "output0/L2Loss_2"
  attr {
    key: "T"
    value {
      type: DT_FLOAT
    }
  }
}
node {
  name: "output0/L2Loss_3"
  op: "L2Loss"
  input: "output0/b20/read"
  attr {
    key: "T"
    value {
      type: DT_FLOAT
    }
  }
}
node {
  name: "output0/add_3"
  op: "Add"
  input: "output0/add_2"
  input: "output0/L2Loss_3"
  attr {
    key: "T"
    value {
      type: DT_FLOAT
    }
  }
}
node {
  name: "output0/scores0/MatMul"
  op: "MatMul"
  input: "output0/dropout/mul"
  input: "W20/read"
  attr {
    key: "T"
    value {
      type: DT_FLOAT
    }
  }
  attr {
    key: "transpose_a"
    value {
      b: false
    }
  }
  attr {
    key: "transpose_b"
    value {
      b: false
    }
  }
}
node {
  name: "output0/scores0"
  op: "BiasAdd"
  input: "output0/scores0/MatMul"
  input: "output0/b20/read"
  attr {
    key: "T"
    value {
      type: DT_FLOAT
    }
  }
  attr {
    key: "data_format"
    value {
      s: "NHWC"
    }
  }
}
node {
  name: "output0/Softmax"
  op: "Softmax"
  input: "output0/scores0"
  attr {
    key: "T"
    value {
      type: DT_FLOAT
    }
  }
}
node {
  name: "output0/predictions0/dimension"
  op: "Const"
  attr {
    key: "dtype"
    value {
      type: DT_INT32
    }
  }
  attr {
    key: "value"
    value {
      tensor {
        dtype: DT_INT32
        tensor_shape {
        }
        int_val: 1
      }
    }
  }
}
node {
  name: "output0/predictions0"
  op: "ArgMax"
  input: "output0/Softmax"
  input: "output0/predictions0/dimension"
  attr {
    key: "T"
    value {
      type: DT_FLOAT
    }
  }
}
node {
  name: "W1"
  op: "Variable"
  attr {
    key: "container"
    value {
      s: ""
    }
  }
  attr {
    key: "dtype"
    value {
      type: DT_FLOAT
    }
  }
  attr {
    key: "shape"
    value {
      shape {
        dim {
          size: 384
        }
        dim {
          size: 50
        }
      }
    }
  }
  attr {
    key: "shared_name"
    value {
      s: ""
    }
  }
}
node {
  name: "W1/Initializer/random_uniform/shape"
  op: "Const"
  attr {
    key: "_class"
    value {
      list {
        s: "loc:@W1"
      }
    }
  }
  attr {
    key: "dtype"
    value {
      type: DT_INT32
    }
  }
  attr {
    key: "value"
    value {
      tensor {
        dtype: DT_INT32
        tensor_shape {
          dim {
            size: 2
          }
        }
        tensor_content: "\200\001\000\0002\000\000\000"
      }
    }
  }
}
node {
  name: "W1/Initializer/random_uniform/min"
  op: "Const"
  attr {
    key: "_class"
    value {
      list {
        s: "loc:@W1"
      }
    }
  }
  attr {
    key: "dtype"
    value {
      type: DT_FLOAT
    }
  }
  attr {
    key: "value"
    value {
      tensor {
        dtype: DT_FLOAT
        tensor_shape {
        }
        float_val: -0.11757927388
      }
    }
  }
}
node {
  name: "W1/Initializer/random_uniform/max"
  op: "Const"
  attr {
    key: "_class"
    value {
      list {
        s: "loc:@W1"
      }
    }
  }
  attr {
    key: "dtype"
    value {
      type: DT_FLOAT
    }
  }
  attr {
    key: "value"
    value {
      tensor {
        dtype: DT_FLOAT
        tensor_shape {
        }
        float_val: 0.11757927388
      }
    }
  }
}
node {
  name: "W1/Initializer/random_uniform/RandomUniform"
  op: "RandomUniform"
  input: "W1/Initializer/random_uniform/shape"
  attr {
    key: "T"
    value {
      type: DT_INT32
    }
  }
  attr {
    key: "_class"
    value {
      list {
        s: "loc:@W1"
      }
    }
  }
  attr {
    key: "dtype"
    value {
      type: DT_FLOAT
    }
  }
  attr {
    key: "seed"
    value {
      i: 0
    }
  }
  attr {
    key: "seed2"
    value {
      i: 0
    }
  }
}
node {
  name: "W1/Initializer/random_uniform/sub"
  op: "Sub"
  input: "W1/Initializer/random_uniform/max"
  input: "W1/Initializer/random_uniform/min"
  attr {
    key: "T"
    value {
      type: DT_FLOAT
    }
  }
  attr {
    key: "_class"
    value {
      list {
        s: "loc:@W1"
      }
    }
  }
}
node {
  name: "W1/Initializer/random_uniform/mul"
  op: "Mul"
  input: "W1/Initializer/random_uniform/RandomUniform"
  input: "W1/Initializer/random_uniform/sub"
  attr {
    key: "T"
    value {
      type: DT_FLOAT
    }
  }
  attr {
    key: "_class"
    value {
      list {
        s: "loc:@W1"
      }
    }
  }
}
node {
  name: "W1/Initializer/random_uniform"
  op: "Add"
  input: "W1/Initializer/random_uniform/mul"
  input: "W1/Initializer/random_uniform/min"
  attr {
    key: "T"
    value {
      type: DT_FLOAT
    }
  }
  attr {
    key: "_class"
    value {
      list {
        s: "loc:@W1"
      }
    }
  }
}
node {
  name: "W1/Assign"
  op: "Assign"
  input: "W1"
  input: "W1/Initializer/random_uniform"
  attr {
    key: "T"
    value {
      type: DT_FLOAT
    }
  }
  attr {
    key: "_class"
    value {
      list {
        s: "loc:@W1"
      }
    }
  }
  attr {
    key: "use_locking"
    value {
      b: true
    }
  }
  attr {
    key: "validate_shape"
    value {
      b: true
    }
  }
}
node {
  name: "W1/read"
  op: "Identity"
  input: "W1"
  attr {
    key: "T"
    value {
      type: DT_FLOAT
    }
  }
  attr {
    key: "_class"
    value {
      list {
        s: "loc:@W1"
      }
    }
  }
}
node {
  name: "output1/Const"
  op: "Const"
  attr {
    key: "dtype"
    value {
      type: DT_FLOAT
    }
  }
  attr {
    key: "value"
    value {
      tensor {
        dtype: DT_FLOAT
        tensor_shape {
          dim {
            size: 50
          }
        }
        float_val: 0.10000000149
      }
    }
  }
}
node {
  name: "output1/b1"
  op: "Variable"
  attr {
    key: "container"
    value {
      s: ""
    }
  }
  attr {
    key: "dtype"
    value {
      type: DT_FLOAT
    }
  }
  attr {
    key: "shape"
    value {
      shape {
        dim {
          size: 50
        }
      }
    }
  }
  attr {
    key: "shared_name"
    value {
      s: ""
    }
  }
}
node {
  name: "output1/b1/Assign"
  op: "Assign"
  input: "output1/b1"
  input: "output1/Const"
  attr {
    key: "T"
    value {
      type: DT_FLOAT
    }
  }
  attr {
    key: "_class"
    value {
      list {
        s: "loc:@output1/b1"
      }
    }
  }
  attr {
    key: "use_locking"
    value {
      b: true
    }
  }
  attr {
    key: "validate_shape"
    value {
      b: true
    }
  }
}
node {
  name: "output1/b1/read"
  op: "Identity"
  input: "output1/b1"
  attr {
    key: "T"
    value {
      type: DT_FLOAT
    }
  }
  attr {
    key: "_class"
    value {
      list {
        s: "loc:@output1/b1"
      }
    }
  }
}
node {
  name: "output1/L2Loss"
  op: "L2Loss"
  input: "W1/read"
  attr {
    key: "T"
    value {
      type: DT_FLOAT
    }
  }
}
node {
  name: "output1/add"
  op: "Add"
  input: "l2_loss1"
  input: "output1/L2Loss"
  attr {
    key: "T"
    value {
      type: DT_FLOAT
    }
  }
}
node {
  name: "output1/L2Loss_1"
  op: "L2Loss"
  input: "output1/b1/read"
  attr {
    key: "T"
    value {
      type: DT_FLOAT
    }
  }
}
node {
  name: "output1/add_1"
  op: "Add"
  input: "output1/add"
  input: "output1/L2Loss_1"
  attr {
    key: "T"
    value {
      type: DT_FLOAT
    }
  }
}
node {
  name: "output1/MatMul"
  op: "MatMul"
  input: "dropout/dropout/mul"
  input: "W1/read"
  attr {
    key: "T"
    value {
      type: DT_FLOAT
    }
  }
  attr {
    key: "transpose_a"
    value {
      b: false
    }
  }
  attr {
    key: "transpose_b"
    value {
      b: false
    }
  }
}
node {
  name: "output1/BiasAdd"
  op: "BiasAdd"
  input: "output1/MatMul"
  input: "output1/b1/read"
  attr {
    key: "T"
    value {
      type: DT_FLOAT
    }
  }
  attr {
    key: "data_format"
    value {
      s: "NHWC"
    }
  }
}
node {
  name: "output1/Sigmoid"
  op: "Sigmoid"
  input: "output1/BiasAdd"
  attr {
    key: "T"
    value {
      type: DT_FLOAT
    }
  }
}
node {
  name: "output1/dropout/Shape"
  op: "Shape"
  input: "output1/Sigmoid"
  attr {
    key: "T"
    value {
      type: DT_FLOAT
    }
  }
}
node {
  name: "output1/dropout/random_uniform/min"
  op: "Const"
  attr {
    key: "dtype"
    value {
      type: DT_FLOAT
    }
  }
  attr {
    key: "value"
    value {
      tensor {
        dtype: DT_FLOAT
        tensor_shape {
        }
        float_val: 0.0
      }
    }
  }
}
node {
  name: "output1/dropout/random_uniform/max"
  op: "Const"
  attr {
    key: "dtype"
    value {
      type: DT_FLOAT
    }
  }
  attr {
    key: "value"
    value {
      tensor {
        dtype: DT_FLOAT
        tensor_shape {
        }
        float_val: 1.0
      }
    }
  }
}
node {
  name: "output1/dropout/random_uniform/RandomUniform"
  op: "RandomUniform"
  input: "output1/dropout/Shape"
  attr {
    key: "T"
    value {
      type: DT_INT32
    }
  }
  attr {
    key: "dtype"
    value {
      type: DT_FLOAT
    }
  }
  attr {
    key: "seed"
    value {
      i: 0
    }
  }
  attr {
    key: "seed2"
    value {
      i: 0
    }
  }
}
node {
  name: "output1/dropout/random_uniform/sub"
  op: "Sub"
  input: "output1/dropout/random_uniform/max"
  input: "output1/dropout/random_uniform/min"
  attr {
    key: "T"
    value {
      type: DT_FLOAT
    }
  }
}
node {
  name: "output1/dropout/random_uniform/mul"
  op: "Mul"
  input: "output1/dropout/random_uniform/RandomUniform"
  input: "output1/dropout/random_uniform/sub"
  attr {
    key: "T"
    value {
      type: DT_FLOAT
    }
  }
}
node {
  name: "output1/dropout/random_uniform"
  op: "Add"
  input: "output1/dropout/random_uniform/mul"
  input: "output1/dropout/random_uniform/min"
  attr {
    key: "T"
    value {
      type: DT_FLOAT
    }
  }
}
node {
  name: "output1/dropout/add"
  op: "Add"
  input: "dropout_keep_prob"
  input: "output1/dropout/random_uniform"
  attr {
    key: "T"
    value {
      type: DT_FLOAT
    }
  }
}
node {
  name: "output1/dropout/Floor"
  op: "Floor"
  input: "output1/dropout/add"
  attr {
    key: "T"
    value {
      type: DT_FLOAT
    }
  }
}
node {
  name: "output1/dropout/Div"
  op: "Div"
  input: "output1/Sigmoid"
  input: "dropout_keep_prob"
  attr {
    key: "T"
    value {
      type: DT_FLOAT
    }
  }
}
node {
  name: "output1/dropout/mul"
  op: "Mul"
  input: "output1/dropout/Div"
  input: "output1/dropout/Floor"
  attr {
    key: "T"
    value {
      type: DT_FLOAT
    }
  }
}
node {
  name: "W21"
  op: "Variable"
  attr {
    key: "container"
    value {
      s: ""
    }
  }
  attr {
    key: "dtype"
    value {
      type: DT_FLOAT
    }
  }
  attr {
    key: "shape"
    value {
      shape {
        dim {
          size: 50
        }
        dim {
          size: 2
        }
      }
    }
  }
  attr {
    key: "shared_name"
    value {
      s: ""
    }
  }
}
node {
  name: "W21/Initializer/random_uniform/shape"
  op: "Const"
  attr {
    key: "_class"
    value {
      list {
        s: "loc:@W21"
      }
    }
  }
  attr {
    key: "dtype"
    value {
      type: DT_INT32
    }
  }
  attr {
    key: "value"
    value {
      tensor {
        dtype: DT_INT32
        tensor_shape {
          dim {
            size: 2
          }
        }
        tensor_content: "2\000\000\000\002\000\000\000"
      }
    }
  }
}
node {
  name: "W21/Initializer/random_uniform/min"
  op: "Const"
  attr {
    key: "_class"
    value {
      list {
        s: "loc:@W21"
      }
    }
  }
  attr {
    key: "dtype"
    value {
      type: DT_FLOAT
    }
  }
  attr {
    key: "value"
    value {
      tensor {
        dtype: DT_FLOAT
        tensor_shape {
        }
        float_val: -0.339683115482
      }
    }
  }
}
node {
  name: "W21/Initializer/random_uniform/max"
  op: "Const"
  attr {
    key: "_class"
    value {
      list {
        s: "loc:@W21"
      }
    }
  }
  attr {
    key: "dtype"
    value {
      type: DT_FLOAT
    }
  }
  attr {
    key: "value"
    value {
      tensor {
        dtype: DT_FLOAT
        tensor_shape {
        }
        float_val: 0.339683115482
      }
    }
  }
}
node {
  name: "W21/Initializer/random_uniform/RandomUniform"
  op: "RandomUniform"
  input: "W21/Initializer/random_uniform/shape"
  attr {
    key: "T"
    value {
      type: DT_INT32
    }
  }
  attr {
    key: "_class"
    value {
      list {
        s: "loc:@W21"
      }
    }
  }
  attr {
    key: "dtype"
    value {
      type: DT_FLOAT
    }
  }
  attr {
    key: "seed"
    value {
      i: 0
    }
  }
  attr {
    key: "seed2"
    value {
      i: 0
    }
  }
}
node {
  name: "W21/Initializer/random_uniform/sub"
  op: "Sub"
  input: "W21/Initializer/random_uniform/max"
  input: "W21/Initializer/random_uniform/min"
  attr {
    key: "T"
    value {
      type: DT_FLOAT
    }
  }
  attr {
    key: "_class"
    value {
      list {
        s: "loc:@W21"
      }
    }
  }
}
node {
  name: "W21/Initializer/random_uniform/mul"
  op: "Mul"
  input: "W21/Initializer/random_uniform/RandomUniform"
  input: "W21/Initializer/random_uniform/sub"
  attr {
    key: "T"
    value {
      type: DT_FLOAT
    }
  }
  attr {
    key: "_class"
    value {
      list {
        s: "loc:@W21"
      }
    }
  }
}
node {
  name: "W21/Initializer/random_uniform"
  op: "Add"
  input: "W21/Initializer/random_uniform/mul"
  input: "W21/Initializer/random_uniform/min"
  attr {
    key: "T"
    value {
      type: DT_FLOAT
    }
  }
  attr {
    key: "_class"
    value {
      list {
        s: "loc:@W21"
      }
    }
  }
}
node {
  name: "W21/Assign"
  op: "Assign"
  input: "W21"
  input: "W21/Initializer/random_uniform"
  attr {
    key: "T"
    value {
      type: DT_FLOAT
    }
  }
  attr {
    key: "_class"
    value {
      list {
        s: "loc:@W21"
      }
    }
  }
  attr {
    key: "use_locking"
    value {
      b: true
    }
  }
  attr {
    key: "validate_shape"
    value {
      b: true
    }
  }
}
node {
  name: "W21/read"
  op: "Identity"
  input: "W21"
  attr {
    key: "T"
    value {
      type: DT_FLOAT
    }
  }
  attr {
    key: "_class"
    value {
      list {
        s: "loc:@W21"
      }
    }
  }
}
node {
  name: "output1/Const_1"
  op: "Const"
  attr {
    key: "dtype"
    value {
      type: DT_FLOAT
    }
  }
  attr {
    key: "value"
    value {
      tensor {
        dtype: DT_FLOAT
        tensor_shape {
          dim {
            size: 2
          }
        }
        float_val: 0.10000000149
      }
    }
  }
}
node {
  name: "output1/b21"
  op: "Variable"
  attr {
    key: "container"
    value {
      s: ""
    }
  }
  attr {
    key: "dtype"
    value {
      type: DT_FLOAT
    }
  }
  attr {
    key: "shape"
    value {
      shape {
        dim {
          size: 2
        }
      }
    }
  }
  attr {
    key: "shared_name"
    value {
      s: ""
    }
  }
}
node {
  name: "output1/b21/Assign"
  op: "Assign"
  input: "output1/b21"
  input: "output1/Const_1"
  attr {
    key: "T"
    value {
      type: DT_FLOAT
    }
  }
  attr {
    key: "_class"
    value {
      list {
        s: "loc:@output1/b21"
      }
    }
  }
  attr {
    key: "use_locking"
    value {
      b: true
    }
  }
  attr {
    key: "validate_shape"
    value {
      b: true
    }
  }
}
node {
  name: "output1/b21/read"
  op: "Identity"
  input: "output1/b21"
  attr {
    key: "T"
    value {
      type: DT_FLOAT
    }
  }
  attr {
    key: "_class"
    value {
      list {
        s: "loc:@output1/b21"
      }
    }
  }
}
node {
  name: "output1/L2Loss_2"
  op: "L2Loss"
  input: "W21/read"
  attr {
    key: "T"
    value {
      type: DT_FLOAT
    }
  }
}
node {
  name: "output1/add_2"
  op: "Add"
  input: "output1/add_1"
  input: "output1/L2Loss_2"
  attr {
    key: "T"
    value {
      type: DT_FLOAT
    }
  }
}
node {
  name: "output1/L2Loss_3"
  op: "L2Loss"
  input: "output1/b21/read"
  attr {
    key: "T"
    value {
      type: DT_FLOAT
    }
  }
}
node {
  name: "output1/add_3"
  op: "Add"
  input: "output1/add_2"
  input: "output1/L2Loss_3"
  attr {
    key: "T"
    value {
      type: DT_FLOAT
    }
  }
}
node {
  name: "output1/scores1/MatMul"
  op: "MatMul"
  input: "output1/dropout/mul"
  input: "W21/read"
  attr {
    key: "T"
    value {
      type: DT_FLOAT
    }
  }
  attr {
    key: "transpose_a"
    value {
      b: false
    }
  }
  attr {
    key: "transpose_b"
    value {
      b: false
    }
  }
}
node {
  name: "output1/scores1"
  op: "BiasAdd"
  input: "output1/scores1/MatMul"
  input: "output1/b21/read"
  attr {
    key: "T"
    value {
      type: DT_FLOAT
    }
  }
  attr {
    key: "data_format"
    value {
      s: "NHWC"
    }
  }
}
node {
  name: "output1/Softmax"
  op: "Softmax"
  input: "output1/scores1"
  attr {
    key: "T"
    value {
      type: DT_FLOAT
    }
  }
}
node {
  name: "output1/predictions1/dimension"
  op: "Const"
  attr {
    key: "dtype"
    value {
      type: DT_INT32
    }
  }
  attr {
    key: "value"
    value {
      tensor {
        dtype: DT_INT32
        tensor_shape {
        }
        int_val: 1
      }
    }
  }
}
node {
  name: "output1/predictions1"
  op: "ArgMax"
  input: "output1/Softmax"
  input: "output1/predictions1/dimension"
  attr {
    key: "T"
    value {
      type: DT_FLOAT
    }
  }
}
node {
  name: "loss0/SoftmaxCrossEntropyWithLogits"
  op: "SoftmaxCrossEntropyWithLogits"
  input: "output0/scores0"
  input: "input_y0"
  attr {
    key: "T"
    value {
      type: DT_FLOAT
    }
  }
}
node {
  name: "loss0/Const"
  op: "Const"
  attr {
    key: "dtype"
    value {
      type: DT_INT32
    }
  }
  attr {
    key: "value"
    value {
      tensor {
        dtype: DT_INT32
        tensor_shape {
          dim {
            size: 1
          }
        }
        int_val: 0
      }
    }
  }
}
node {
  name: "loss0/Mean"
  op: "Mean"
  input: "loss0/SoftmaxCrossEntropyWithLogits"
  input: "loss0/Const"
  attr {
    key: "T"
    value {
      type: DT_FLOAT
    }
  }
  attr {
    key: "keep_dims"
    value {
      b: false
    }
  }
}
node {
  name: "loss0/mul/x"
  op: "Const"
  attr {
    key: "dtype"
    value {
      type: DT_FLOAT
    }
  }
  attr {
    key: "value"
    value {
      tensor {
        dtype: DT_FLOAT
        tensor_shape {
        }
        float_val: 0.0
      }
    }
  }
}
node {
  name: "loss0/mul"
  op: "Mul"
  input: "loss0/mul/x"
  input: "output0/add_3"
  attr {
    key: "T"
    value {
      type: DT_FLOAT
    }
  }
}
node {
  name: "loss0/add"
  op: "Add"
  input: "loss0/Mean"
  input: "loss0/mul"
  attr {
    key: "T"
    value {
      type: DT_FLOAT
    }
  }
}
node {
  name: "loss1/SoftmaxCrossEntropyWithLogits"
  op: "SoftmaxCrossEntropyWithLogits"
  input: "output1/scores1"
  input: "input_y1"
  attr {
    key: "T"
    value {
      type: DT_FLOAT
    }
  }
}
node {
  name: "loss1/Const"
  op: "Const"
  attr {
    key: "dtype"
    value {
      type: DT_INT32
    }
  }
  attr {
    key: "value"
    value {
      tensor {
        dtype: DT_INT32
        tensor_shape {
          dim {
            size: 1
          }
        }
        int_val: 0
      }
    }
  }
}
node {
  name: "loss1/Mean"
  op: "Mean"
  input: "loss1/SoftmaxCrossEntropyWithLogits"
  input: "loss1/Const"
  attr {
    key: "T"
    value {
      type: DT_FLOAT
    }
  }
  attr {
    key: "keep_dims"
    value {
      b: false
    }
  }
}
node {
  name: "loss1/mul/x"
  op: "Const"
  attr {
    key: "dtype"
    value {
      type: DT_FLOAT
    }
  }
  attr {
    key: "value"
    value {
      tensor {
        dtype: DT_FLOAT
        tensor_shape {
        }
        float_val: 0.0
      }
    }
  }
}
node {
  name: "loss1/mul"
  op: "Mul"
  input: "loss1/mul/x"
  input: "output1/add_3"
  attr {
    key: "T"
    value {
      type: DT_FLOAT
    }
  }
}
node {
  name: "loss1/add"
  op: "Add"
  input: "loss1/Mean"
  input: "loss1/mul"
  attr {
    key: "T"
    value {
      type: DT_FLOAT
    }
  }
}
node {
  name: "accuracy0/ArgMax/dimension"
  op: "Const"
  attr {
    key: "dtype"
    value {
      type: DT_INT32
    }
  }
  attr {
    key: "value"
    value {
      tensor {
        dtype: DT_INT32
        tensor_shape {
        }
        int_val: 1
      }
    }
  }
}
node {
  name: "accuracy0/ArgMax"
  op: "ArgMax"
  input: "input_y0"
  input: "accuracy0/ArgMax/dimension"
  attr {
    key: "T"
    value {
      type: DT_FLOAT
    }
  }
}
node {
  name: "accuracy0/Equal"
  op: "Equal"
  input: "output0/predictions0"
  input: "accuracy0/ArgMax"
  attr {
    key: "T"
    value {
      type: DT_INT64
    }
  }
}
node {
  name: "accuracy0/Cast"
  op: "Cast"
  input: "accuracy0/Equal"
  attr {
    key: "DstT"
    value {
      type: DT_FLOAT
    }
  }
  attr {
    key: "SrcT"
    value {
      type: DT_BOOL
    }
  }
}
node {
  name: "accuracy0/Const"
  op: "Const"
  attr {
    key: "dtype"
    value {
      type: DT_INT32
    }
  }
  attr {
    key: "value"
    value {
      tensor {
        dtype: DT_INT32
        tensor_shape {
          dim {
            size: 1
          }
        }
        int_val: 0
      }
    }
  }
}
node {
  name: "accuracy0/accuracy0"
  op: "Mean"
  input: "accuracy0/Cast"
  input: "accuracy0/Const"
  attr {
    key: "T"
    value {
      type: DT_FLOAT
    }
  }
  attr {
    key: "keep_dims"
    value {
      b: false
    }
  }
}
node {
  name: "accuracy1/ArgMax/dimension"
  op: "Const"
  attr {
    key: "dtype"
    value {
      type: DT_INT32
    }
  }
  attr {
    key: "value"
    value {
      tensor {
        dtype: DT_INT32
        tensor_shape {
        }
        int_val: 1
      }
    }
  }
}
node {
  name: "accuracy1/ArgMax"
  op: "ArgMax"
  input: "input_y1"
  input: "accuracy1/ArgMax/dimension"
  attr {
    key: "T"
    value {
      type: DT_FLOAT
    }
  }
}
node {
  name: "accuracy1/Equal"
  op: "Equal"
  input: "output1/predictions1"
  input: "accuracy1/ArgMax"
  attr {
    key: "T"
    value {
      type: DT_INT64
    }
  }
}
node {
  name: "accuracy1/Cast"
  op: "Cast"
  input: "accuracy1/Equal"
  attr {
    key: "DstT"
    value {
      type: DT_FLOAT
    }
  }
  attr {
    key: "SrcT"
    value {
      type: DT_BOOL
    }
  }
}
node {
  name: "accuracy1/Const"
  op: "Const"
  attr {
    key: "dtype"
    value {
      type: DT_INT32
    }
  }
  attr {
    key: "value"
    value {
      tensor {
        dtype: DT_INT32
        tensor_shape {
          dim {
            size: 1
          }
        }
        int_val: 0
      }
    }
  }
}
node {
  name: "accuracy1/accuracy1"
  op: "Mean"
  input: "accuracy1/Cast"
  input: "accuracy1/Const"
  attr {
    key: "T"
    value {
      type: DT_FLOAT
    }
  }
  attr {
    key: "keep_dims"
    value {
      b: false
    }
  }
}
node {
  name: "global_step/initial_value"
  op: "Const"
  attr {
    key: "dtype"
    value {
      type: DT_INT32
    }
  }
  attr {
    key: "value"
    value {
      tensor {
        dtype: DT_INT32
        tensor_shape {
        }
        int_val: 0
      }
    }
  }
}
node {
  name: "global_step"
  op: "Variable"
  attr {
    key: "container"
    value {
      s: ""
    }
  }
  attr {
    key: "dtype"
    value {
      type: DT_INT32
    }
  }
  attr {
    key: "shape"
    value {
      shape {
      }
    }
  }
  attr {
    key: "shared_name"
    value {
      s: ""
    }
  }
}
node {
  name: "global_step/Assign"
  op: "Assign"
  input: "global_step"
  input: "global_step/initial_value"
  attr {
    key: "T"
    value {
      type: DT_INT32
    }
  }
  attr {
    key: "_class"
    value {
      list {
        s: "loc:@global_step"
      }
    }
  }
  attr {
    key: "use_locking"
    value {
      b: true
    }
  }
  attr {
    key: "validate_shape"
    value {
      b: true
    }
  }
}
node {
  name: "global_step/read"
  op: "Identity"
  input: "global_step"
  attr {
    key: "T"
    value {
      type: DT_INT32
    }
  }
  attr {
    key: "_class"
    value {
      list {
        s: "loc:@global_step"
      }
    }
  }
}
node {
  name: "gradients/Shape"
  op: "Const"
  attr {
    key: "dtype"
    value {
      type: DT_INT32
    }
  }
  attr {
    key: "value"
    value {
      tensor {
        dtype: DT_INT32
        tensor_shape {
          dim {
          }
        }
      }
    }
  }
}
node {
  name: "gradients/Const"
  op: "Const"
  attr {
    key: "dtype"
    value {
      type: DT_FLOAT
    }
  }
  attr {
    key: "value"
    value {
      tensor {
        dtype: DT_FLOAT
        tensor_shape {
        }
        float_val: 1.0
      }
    }
  }
}
node {
  name: "gradients/Fill"
  op: "Fill"
  input: "gradients/Shape"
  input: "gradients/Const"
  attr {
    key: "T"
    value {
      type: DT_FLOAT
    }
  }
}
node {
  name: "gradients/loss0/add_grad/Shape"
  op: "Const"
  attr {
    key: "dtype"
    value {
      type: DT_INT32
    }
  }
  attr {
    key: "value"
    value {
      tensor {
        dtype: DT_INT32
        tensor_shape {
          dim {
          }
        }
      }
    }
  }
}
node {
  name: "gradients/loss0/add_grad/Shape_1"
  op: "Const"
  attr {
    key: "dtype"
    value {
      type: DT_INT32
    }
  }
  attr {
    key: "value"
    value {
      tensor {
        dtype: DT_INT32
        tensor_shape {
          dim {
          }
        }
      }
    }
  }
}
node {
  name: "gradients/loss0/add_grad/BroadcastGradientArgs"
  op: "BroadcastGradientArgs"
  input: "gradients/loss0/add_grad/Shape"
  input: "gradients/loss0/add_grad/Shape_1"
}
node {
  name: "gradients/loss0/add_grad/Sum"
  op: "Sum"
  input: "gradients/Fill"
  input: "gradients/loss0/add_grad/BroadcastGradientArgs"
  attr {
    key: "T"
    value {
      type: DT_FLOAT
    }
  }
  attr {
    key: "keep_dims"
    value {
      b: false
    }
  }
}
node {
  name: "gradients/loss0/add_grad/Reshape"
  op: "Reshape"
  input: "gradients/loss0/add_grad/Sum"
  input: "gradients/loss0/add_grad/Shape"
  attr {
    key: "T"
    value {
      type: DT_FLOAT
    }
  }
}
node {
  name: "gradients/loss0/add_grad/Sum_1"
  op: "Sum"
  input: "gradients/Fill"
  input: "gradients/loss0/add_grad/BroadcastGradientArgs:1"
  attr {
    key: "T"
    value {
      type: DT_FLOAT
    }
  }
  attr {
    key: "keep_dims"
    value {
      b: false
    }
  }
}
node {
  name: "gradients/loss0/add_grad/Reshape_1"
  op: "Reshape"
  input: "gradients/loss0/add_grad/Sum_1"
  input: "gradients/loss0/add_grad/Shape_1"
  attr {
    key: "T"
    value {
      type: DT_FLOAT
    }
  }
}
node {
  name: "gradients/loss0/add_grad/tuple/group_deps"
  op: "NoOp"
  input: "^gradients/loss0/add_grad/Reshape"
  input: "^gradients/loss0/add_grad/Reshape_1"
}
node {
  name: "gradients/loss0/add_grad/tuple/control_dependency"
  op: "Identity"
  input: "gradients/loss0/add_grad/Reshape"
  input: "^gradients/loss0/add_grad/tuple/group_deps"
  attr {
    key: "T"
    value {
      type: DT_FLOAT
    }
  }
  attr {
    key: "_class"
    value {
      list {
        s: "loc:@gradients/loss0/add_grad/Reshape"
      }
    }
  }
}
node {
  name: "gradients/loss0/add_grad/tuple/control_dependency_1"
  op: "Identity"
  input: "gradients/loss0/add_grad/Reshape_1"
  input: "^gradients/loss0/add_grad/tuple/group_deps"
  attr {
    key: "T"
    value {
      type: DT_FLOAT
    }
  }
  attr {
    key: "_class"
    value {
      list {
        s: "loc:@gradients/loss0/add_grad/Reshape_1"
      }
    }
  }
}
node {
  name: "gradients/loss0/Mean_grad/Reshape/shape"
  op: "Const"
  attr {
    key: "dtype"
    value {
      type: DT_INT32
    }
  }
  attr {
    key: "value"
    value {
      tensor {
        dtype: DT_INT32
        tensor_shape {
          dim {
            size: 1
          }
        }
        int_val: 1
      }
    }
  }
}
node {
  name: "gradients/loss0/Mean_grad/Reshape"
  op: "Reshape"
  input: "gradients/loss0/add_grad/tuple/control_dependency"
  input: "gradients/loss0/Mean_grad/Reshape/shape"
  attr {
    key: "T"
    value {
      type: DT_FLOAT
    }
  }
}
node {
  name: "gradients/loss0/Mean_grad/Shape"
  op: "Shape"
  input: "loss0/SoftmaxCrossEntropyWithLogits"
  attr {
    key: "T"
    value {
      type: DT_FLOAT
    }
  }
}
node {
  name: "gradients/loss0/Mean_grad/Tile"
  op: "Tile"
  input: "gradients/loss0/Mean_grad/Reshape"
  input: "gradients/loss0/Mean_grad/Shape"
  attr {
    key: "T"
    value {
      type: DT_FLOAT
    }
  }
}
node {
  name: "gradients/loss0/Mean_grad/Shape_1"
  op: "Shape"
  input: "loss0/SoftmaxCrossEntropyWithLogits"
  attr {
    key: "T"
    value {
      type: DT_FLOAT
    }
  }
}
node {
  name: "gradients/loss0/Mean_grad/Shape_2"
  op: "Const"
  attr {
    key: "dtype"
    value {
      type: DT_INT32
    }
  }
  attr {
    key: "value"
    value {
      tensor {
        dtype: DT_INT32
        tensor_shape {
          dim {
          }
        }
      }
    }
  }
}
node {
  name: "gradients/loss0/Mean_grad/Const"
  op: "Const"
  attr {
    key: "dtype"
    value {
      type: DT_INT32
    }
  }
  attr {
    key: "value"
    value {
      tensor {
        dtype: DT_INT32
        tensor_shape {
          dim {
            size: 1
          }
        }
        int_val: 0
      }
    }
  }
}
node {
  name: "gradients/loss0/Mean_grad/Prod"
  op: "Prod"
  input: "gradients/loss0/Mean_grad/Shape_1"
  input: "gradients/loss0/Mean_grad/Const"
  attr {
    key: "T"
    value {
      type: DT_INT32
    }
  }
  attr {
    key: "keep_dims"
    value {
      b: false
    }
  }
}
node {
  name: "gradients/loss0/Mean_grad/Const_1"
  op: "Const"
  attr {
    key: "dtype"
    value {
      type: DT_INT32
    }
  }
  attr {
    key: "value"
    value {
      tensor {
        dtype: DT_INT32
        tensor_shape {
          dim {
            size: 1
          }
        }
        int_val: 0
      }
    }
  }
}
node {
  name: "gradients/loss0/Mean_grad/Prod_1"
  op: "Prod"
  input: "gradients/loss0/Mean_grad/Shape_2"
  input: "gradients/loss0/Mean_grad/Const_1"
  attr {
    key: "T"
    value {
      type: DT_INT32
    }
  }
  attr {
    key: "keep_dims"
    value {
      b: false
    }
  }
}
node {
  name: "gradients/loss0/Mean_grad/Maximum/y"
  op: "Const"
  attr {
    key: "dtype"
    value {
      type: DT_INT32
    }
  }
  attr {
    key: "value"
    value {
      tensor {
        dtype: DT_INT32
        tensor_shape {
        }
        int_val: 1
      }
    }
  }
}
node {
  name: "gradients/loss0/Mean_grad/Maximum"
  op: "Maximum"
  input: "gradients/loss0/Mean_grad/Prod_1"
  input: "gradients/loss0/Mean_grad/Maximum/y"
  attr {
    key: "T"
    value {
      type: DT_INT32
    }
  }
}
node {
  name: "gradients/loss0/Mean_grad/floordiv"
  op: "Div"
  input: "gradients/loss0/Mean_grad/Prod"
  input: "gradients/loss0/Mean_grad/Maximum"
  attr {
    key: "T"
    value {
      type: DT_INT32
    }
  }
}
node {
  name: "gradients/loss0/Mean_grad/Cast"
  op: "Cast"
  input: "gradients/loss0/Mean_grad/floordiv"
  attr {
    key: "DstT"
    value {
      type: DT_FLOAT
    }
  }
  attr {
    key: "SrcT"
    value {
      type: DT_INT32
    }
  }
}
node {
  name: "gradients/loss0/Mean_grad/truediv"
  op: "Div"
  input: "gradients/loss0/Mean_grad/Tile"
  input: "gradients/loss0/Mean_grad/Cast"
  attr {
    key: "T"
    value {
      type: DT_FLOAT
    }
  }
}
node {
  name: "gradients/loss0/mul_grad/Shape"
  op: "Const"
  attr {
    key: "dtype"
    value {
      type: DT_INT32
    }
  }
  attr {
    key: "value"
    value {
      tensor {
        dtype: DT_INT32
        tensor_shape {
          dim {
          }
        }
      }
    }
  }
}
node {
  name: "gradients/loss0/mul_grad/Shape_1"
  op: "Const"
  attr {
    key: "dtype"
    value {
      type: DT_INT32
    }
  }
  attr {
    key: "value"
    value {
      tensor {
        dtype: DT_INT32
        tensor_shape {
          dim {
          }
        }
      }
    }
  }
}
node {
  name: "gradients/loss0/mul_grad/BroadcastGradientArgs"
  op: "BroadcastGradientArgs"
  input: "gradients/loss0/mul_grad/Shape"
  input: "gradients/loss0/mul_grad/Shape_1"
}
node {
  name: "gradients/loss0/mul_grad/mul"
  op: "Mul"
  input: "gradients/loss0/add_grad/tuple/control_dependency_1"
  input: "output0/add_3"
  attr {
    key: "T"
    value {
      type: DT_FLOAT
    }
  }
}
node {
  name: "gradients/loss0/mul_grad/Sum"
  op: "Sum"
  input: "gradients/loss0/mul_grad/mul"
  input: "gradients/loss0/mul_grad/BroadcastGradientArgs"
  attr {
    key: "T"
    value {
      type: DT_FLOAT
    }
  }
  attr {
    key: "keep_dims"
    value {
      b: false
    }
  }
}
node {
  name: "gradients/loss0/mul_grad/Reshape"
  op: "Reshape"
  input: "gradients/loss0/mul_grad/Sum"
  input: "gradients/loss0/mul_grad/Shape"
  attr {
    key: "T"
    value {
      type: DT_FLOAT
    }
  }
}
node {
  name: "gradients/loss0/mul_grad/mul_1"
  op: "Mul"
  input: "loss0/mul/x"
  input: "gradients/loss0/add_grad/tuple/control_dependency_1"
  attr {
    key: "T"
    value {
      type: DT_FLOAT
    }
  }
}
node {
  name: "gradients/loss0/mul_grad/Sum_1"
  op: "Sum"
  input: "gradients/loss0/mul_grad/mul_1"
  input: "gradients/loss0/mul_grad/BroadcastGradientArgs:1"
  attr {
    key: "T"
    value {
      type: DT_FLOAT
    }
  }
  attr {
    key: "keep_dims"
    value {
      b: false
    }
  }
}
node {
  name: "gradients/loss0/mul_grad/Reshape_1"
  op: "Reshape"
  input: "gradients/loss0/mul_grad/Sum_1"
  input: "gradients/loss0/mul_grad/Shape_1"
  attr {
    key: "T"
    value {
      type: DT_FLOAT
    }
  }
}
node {
  name: "gradients/loss0/mul_grad/tuple/group_deps"
  op: "NoOp"
  input: "^gradients/loss0/mul_grad/Reshape"
  input: "^gradients/loss0/mul_grad/Reshape_1"
}
node {
  name: "gradients/loss0/mul_grad/tuple/control_dependency"
  op: "Identity"
  input: "gradients/loss0/mul_grad/Reshape"
  input: "^gradients/loss0/mul_grad/tuple/group_deps"
  attr {
    key: "T"
    value {
      type: DT_FLOAT
    }
  }
  attr {
    key: "_class"
    value {
      list {
        s: "loc:@gradients/loss0/mul_grad/Reshape"
      }
    }
  }
}
node {
  name: "gradients/loss0/mul_grad/tuple/control_dependency_1"
  op: "Identity"
  input: "gradients/loss0/mul_grad/Reshape_1"
  input: "^gradients/loss0/mul_grad/tuple/group_deps"
  attr {
    key: "T"
    value {
      type: DT_FLOAT
    }
  }
  attr {
    key: "_class"
    value {
      list {
        s: "loc:@gradients/loss0/mul_grad/Reshape_1"
      }
    }
  }
}
node {
  name: "gradients/zeros_like"
  op: "ZerosLike"
  input: "loss0/SoftmaxCrossEntropyWithLogits:1"
  attr {
    key: "T"
    value {
      type: DT_FLOAT
    }
  }
}
node {
  name: "gradients/loss0/SoftmaxCrossEntropyWithLogits_grad/ExpandDims/dim"
  op: "Const"
  attr {
    key: "dtype"
    value {
      type: DT_INT32
    }
  }
  attr {
    key: "value"
    value {
      tensor {
        dtype: DT_INT32
        tensor_shape {
        }
        int_val: -1
      }
    }
  }
}
node {
  name: "gradients/loss0/SoftmaxCrossEntropyWithLogits_grad/ExpandDims"
  op: "ExpandDims"
  input: "gradients/loss0/Mean_grad/truediv"
  input: "gradients/loss0/SoftmaxCrossEntropyWithLogits_grad/ExpandDims/dim"
  attr {
    key: "T"
    value {
      type: DT_FLOAT
    }
  }
}
node {
  name: "gradients/loss0/SoftmaxCrossEntropyWithLogits_grad/mul"
  op: "Mul"
  input: "gradients/loss0/SoftmaxCrossEntropyWithLogits_grad/ExpandDims"
  input: "loss0/SoftmaxCrossEntropyWithLogits:1"
  attr {
    key: "T"
    value {
      type: DT_FLOAT
    }
  }
}
node {
  name: "gradients/output0/add_3_grad/Shape"
  op: "Const"
  attr {
    key: "dtype"
    value {
      type: DT_INT32
    }
  }
  attr {
    key: "value"
    value {
      tensor {
        dtype: DT_INT32
        tensor_shape {
          dim {
          }
        }
      }
    }
  }
}
node {
  name: "gradients/output0/add_3_grad/Shape_1"
  op: "Const"
  attr {
    key: "dtype"
    value {
      type: DT_INT32
    }
  }
  attr {
    key: "value"
    value {
      tensor {
        dtype: DT_INT32
        tensor_shape {
          dim {
          }
        }
      }
    }
  }
}
node {
  name: "gradients/output0/add_3_grad/BroadcastGradientArgs"
  op: "BroadcastGradientArgs"
  input: "gradients/output0/add_3_grad/Shape"
  input: "gradients/output0/add_3_grad/Shape_1"
}
node {
  name: "gradients/output0/add_3_grad/Sum"
  op: "Sum"
  input: "gradients/loss0/mul_grad/tuple/control_dependency_1"
  input: "gradients/output0/add_3_grad/BroadcastGradientArgs"
  attr {
    key: "T"
    value {
      type: DT_FLOAT
    }
  }
  attr {
    key: "keep_dims"
    value {
      b: false
    }
  }
}
node {
  name: "gradients/output0/add_3_grad/Reshape"
  op: "Reshape"
  input: "gradients/output0/add_3_grad/Sum"
  input: "gradients/output0/add_3_grad/Shape"
  attr {
    key: "T"
    value {
      type: DT_FLOAT
    }
  }
}
node {
  name: "gradients/output0/add_3_grad/Sum_1"
  op: "Sum"
  input: "gradients/loss0/mul_grad/tuple/control_dependency_1"
  input: "gradients/output0/add_3_grad/BroadcastGradientArgs:1"
  attr {
    key: "T"
    value {
      type: DT_FLOAT
    }
  }
  attr {
    key: "keep_dims"
    value {
      b: false
    }
  }
}
node {
  name: "gradients/output0/add_3_grad/Reshape_1"
  op: "Reshape"
  input: "gradients/output0/add_3_grad/Sum_1"
  input: "gradients/output0/add_3_grad/Shape_1"
  attr {
    key: "T"
    value {
      type: DT_FLOAT
    }
  }
}
node {
  name: "gradients/output0/add_3_grad/tuple/group_deps"
  op: "NoOp"
  input: "^gradients/output0/add_3_grad/Reshape"
  input: "^gradients/output0/add_3_grad/Reshape_1"
}
node {
  name: "gradients/output0/add_3_grad/tuple/control_dependency"
  op: "Identity"
  input: "gradients/output0/add_3_grad/Reshape"
  input: "^gradients/output0/add_3_grad/tuple/group_deps"
  attr {
    key: "T"
    value {
      type: DT_FLOAT
    }
  }
  attr {
    key: "_class"
    value {
      list {
        s: "loc:@gradients/output0/add_3_grad/Reshape"
      }
    }
  }
}
node {
  name: "gradients/output0/add_3_grad/tuple/control_dependency_1"
  op: "Identity"
  input: "gradients/output0/add_3_grad/Reshape_1"
  input: "^gradients/output0/add_3_grad/tuple/group_deps"
  attr {
    key: "T"
    value {
      type: DT_FLOAT
    }
  }
  attr {
    key: "_class"
    value {
      list {
        s: "loc:@gradients/output0/add_3_grad/Reshape_1"
      }
    }
  }
}
node {
  name: "gradients/output0/scores0_grad/BiasAddGrad"
  op: "BiasAddGrad"
  input: "gradients/loss0/SoftmaxCrossEntropyWithLogits_grad/mul"
  attr {
    key: "T"
    value {
      type: DT_FLOAT
    }
  }
  attr {
    key: "data_format"
    value {
      s: "NHWC"
    }
  }
}
node {
  name: "gradients/output0/scores0_grad/tuple/group_deps"
  op: "NoOp"
  input: "^gradients/loss0/SoftmaxCrossEntropyWithLogits_grad/mul"
  input: "^gradients/output0/scores0_grad/BiasAddGrad"
}
node {
  name: "gradients/output0/scores0_grad/tuple/control_dependency"
  op: "Identity"
  input: "gradients/loss0/SoftmaxCrossEntropyWithLogits_grad/mul"
  input: "^gradients/output0/scores0_grad/tuple/group_deps"
  attr {
    key: "T"
    value {
      type: DT_FLOAT
    }
  }
  attr {
    key: "_class"
    value {
      list {
        s: "loc:@gradients/loss0/SoftmaxCrossEntropyWithLogits_grad/mul"
      }
    }
  }
}
node {
  name: "gradients/output0/scores0_grad/tuple/control_dependency_1"
  op: "Identity"
  input: "gradients/output0/scores0_grad/BiasAddGrad"
  input: "^gradients/output0/scores0_grad/tuple/group_deps"
  attr {
    key: "T"
    value {
      type: DT_FLOAT
    }
  }
  attr {
    key: "_class"
    value {
      list {
        s: "loc:@gradients/output0/scores0_grad/BiasAddGrad"
      }
    }
  }
}
node {
  name: "gradients/output0/add_2_grad/Shape"
  op: "Const"
  attr {
    key: "dtype"
    value {
      type: DT_INT32
    }
  }
  attr {
    key: "value"
    value {
      tensor {
        dtype: DT_INT32
        tensor_shape {
          dim {
          }
        }
      }
    }
  }
}
node {
  name: "gradients/output0/add_2_grad/Shape_1"
  op: "Const"
  attr {
    key: "dtype"
    value {
      type: DT_INT32
    }
  }
  attr {
    key: "value"
    value {
      tensor {
        dtype: DT_INT32
        tensor_shape {
          dim {
          }
        }
      }
    }
  }
}
node {
  name: "gradients/output0/add_2_grad/BroadcastGradientArgs"
  op: "BroadcastGradientArgs"
  input: "gradients/output0/add_2_grad/Shape"
  input: "gradients/output0/add_2_grad/Shape_1"
}
node {
  name: "gradients/output0/add_2_grad/Sum"
  op: "Sum"
  input: "gradients/output0/add_3_grad/tuple/control_dependency"
  input: "gradients/output0/add_2_grad/BroadcastGradientArgs"
  attr {
    key: "T"
    value {
      type: DT_FLOAT
    }
  }
  attr {
    key: "keep_dims"
    value {
      b: false
    }
  }
}
node {
  name: "gradients/output0/add_2_grad/Reshape"
  op: "Reshape"
  input: "gradients/output0/add_2_grad/Sum"
  input: "gradients/output0/add_2_grad/Shape"
  attr {
    key: "T"
    value {
      type: DT_FLOAT
    }
  }
}
node {
  name: "gradients/output0/add_2_grad/Sum_1"
  op: "Sum"
  input: "gradients/output0/add_3_grad/tuple/control_dependency"
  input: "gradients/output0/add_2_grad/BroadcastGradientArgs:1"
  attr {
    key: "T"
    value {
      type: DT_FLOAT
    }
  }
  attr {
    key: "keep_dims"
    value {
      b: false
    }
  }
}
node {
  name: "gradients/output0/add_2_grad/Reshape_1"
  op: "Reshape"
  input: "gradients/output0/add_2_grad/Sum_1"
  input: "gradients/output0/add_2_grad/Shape_1"
  attr {
    key: "T"
    value {
      type: DT_FLOAT
    }
  }
}
node {
  name: "gradients/output0/add_2_grad/tuple/group_deps"
  op: "NoOp"
  input: "^gradients/output0/add_2_grad/Reshape"
  input: "^gradients/output0/add_2_grad/Reshape_1"
}
node {
  name: "gradients/output0/add_2_grad/tuple/control_dependency"
  op: "Identity"
  input: "gradients/output0/add_2_grad/Reshape"
  input: "^gradients/output0/add_2_grad/tuple/group_deps"
  attr {
    key: "T"
    value {
      type: DT_FLOAT
    }
  }
  attr {
    key: "_class"
    value {
      list {
        s: "loc:@gradients/output0/add_2_grad/Reshape"
      }
    }
  }
}
node {
  name: "gradients/output0/add_2_grad/tuple/control_dependency_1"
  op: "Identity"
  input: "gradients/output0/add_2_grad/Reshape_1"
  input: "^gradients/output0/add_2_grad/tuple/group_deps"
  attr {
    key: "T"
    value {
      type: DT_FLOAT
    }
  }
  attr {
    key: "_class"
    value {
      list {
        s: "loc:@gradients/output0/add_2_grad/Reshape_1"
      }
    }
  }
}
node {
  name: "gradients/output0/L2Loss_3_grad/mul"
  op: "Mul"
  input: "output0/b20/read"
  input: "gradients/output0/add_3_grad/tuple/control_dependency_1"
  attr {
    key: "T"
    value {
      type: DT_FLOAT
    }
  }
}
node {
  name: "gradients/output0/scores0/MatMul_grad/MatMul"
  op: "MatMul"
  input: "gradients/output0/scores0_grad/tuple/control_dependency"
  input: "W20/read"
  attr {
    key: "T"
    value {
      type: DT_FLOAT
    }
  }
  attr {
    key: "transpose_a"
    value {
      b: false
    }
  }
  attr {
    key: "transpose_b"
    value {
      b: true
    }
  }
}
node {
  name: "gradients/output0/scores0/MatMul_grad/MatMul_1"
  op: "MatMul"
  input: "output0/dropout/mul"
  input: "gradients/output0/scores0_grad/tuple/control_dependency"
  attr {
    key: "T"
    value {
      type: DT_FLOAT
    }
  }
  attr {
    key: "transpose_a"
    value {
      b: true
    }
  }
  attr {
    key: "transpose_b"
    value {
      b: false
    }
  }
}
node {
  name: "gradients/output0/scores0/MatMul_grad/tuple/group_deps"
  op: "NoOp"
  input: "^gradients/output0/scores0/MatMul_grad/MatMul"
  input: "^gradients/output0/scores0/MatMul_grad/MatMul_1"
}
node {
  name: "gradients/output0/scores0/MatMul_grad/tuple/control_dependency"
  op: "Identity"
  input: "gradients/output0/scores0/MatMul_grad/MatMul"
  input: "^gradients/output0/scores0/MatMul_grad/tuple/group_deps"
  attr {
    key: "T"
    value {
      type: DT_FLOAT
    }
  }
  attr {
    key: "_class"
    value {
      list {
        s: "loc:@gradients/output0/scores0/MatMul_grad/MatMul"
      }
    }
  }
}
node {
  name: "gradients/output0/scores0/MatMul_grad/tuple/control_dependency_1"
  op: "Identity"
  input: "gradients/output0/scores0/MatMul_grad/MatMul_1"
  input: "^gradients/output0/scores0/MatMul_grad/tuple/group_deps"
  attr {
    key: "T"
    value {
      type: DT_FLOAT
    }
  }
  attr {
    key: "_class"
    value {
      list {
        s: "loc:@gradients/output0/scores0/MatMul_grad/MatMul_1"
      }
    }
  }
}
node {
  name: "gradients/output0/add_1_grad/Shape"
  op: "Const"
  attr {
    key: "dtype"
    value {
      type: DT_INT32
    }
  }
  attr {
    key: "value"
    value {
      tensor {
        dtype: DT_INT32
        tensor_shape {
          dim {
          }
        }
      }
    }
  }
}
node {
  name: "gradients/output0/add_1_grad/Shape_1"
  op: "Const"
  attr {
    key: "dtype"
    value {
      type: DT_INT32
    }
  }
  attr {
    key: "value"
    value {
      tensor {
        dtype: DT_INT32
        tensor_shape {
          dim {
          }
        }
      }
    }
  }
}
node {
  name: "gradients/output0/add_1_grad/BroadcastGradientArgs"
  op: "BroadcastGradientArgs"
  input: "gradients/output0/add_1_grad/Shape"
  input: "gradients/output0/add_1_grad/Shape_1"
}
node {
  name: "gradients/output0/add_1_grad/Sum"
  op: "Sum"
  input: "gradients/output0/add_2_grad/tuple/control_dependency"
  input: "gradients/output0/add_1_grad/BroadcastGradientArgs"
  attr {
    key: "T"
    value {
      type: DT_FLOAT
    }
  }
  attr {
    key: "keep_dims"
    value {
      b: false
    }
  }
}
node {
  name: "gradients/output0/add_1_grad/Reshape"
  op: "Reshape"
  input: "gradients/output0/add_1_grad/Sum"
  input: "gradients/output0/add_1_grad/Shape"
  attr {
    key: "T"
    value {
      type: DT_FLOAT
    }
  }
}
node {
  name: "gradients/output0/add_1_grad/Sum_1"
  op: "Sum"
  input: "gradients/output0/add_2_grad/tuple/control_dependency"
  input: "gradients/output0/add_1_grad/BroadcastGradientArgs:1"
  attr {
    key: "T"
    value {
      type: DT_FLOAT
    }
  }
  attr {
    key: "keep_dims"
    value {
      b: false
    }
  }
}
node {
  name: "gradients/output0/add_1_grad/Reshape_1"
  op: "Reshape"
  input: "gradients/output0/add_1_grad/Sum_1"
  input: "gradients/output0/add_1_grad/Shape_1"
  attr {
    key: "T"
    value {
      type: DT_FLOAT
    }
  }
}
node {
  name: "gradients/output0/add_1_grad/tuple/group_deps"
  op: "NoOp"
  input: "^gradients/output0/add_1_grad/Reshape"
  input: "^gradients/output0/add_1_grad/Reshape_1"
}
node {
  name: "gradients/output0/add_1_grad/tuple/control_dependency"
  op: "Identity"
  input: "gradients/output0/add_1_grad/Reshape"
  input: "^gradients/output0/add_1_grad/tuple/group_deps"
  attr {
    key: "T"
    value {
      type: DT_FLOAT
    }
  }
  attr {
    key: "_class"
    value {
      list {
        s: "loc:@gradients/output0/add_1_grad/Reshape"
      }
    }
  }
}
node {
  name: "gradients/output0/add_1_grad/tuple/control_dependency_1"
  op: "Identity"
  input: "gradients/output0/add_1_grad/Reshape_1"
  input: "^gradients/output0/add_1_grad/tuple/group_deps"
  attr {
    key: "T"
    value {
      type: DT_FLOAT
    }
  }
  attr {
    key: "_class"
    value {
      list {
        s: "loc:@gradients/output0/add_1_grad/Reshape_1"
      }
    }
  }
}
node {
  name: "gradients/output0/L2Loss_2_grad/mul"
  op: "Mul"
  input: "W20/read"
  input: "gradients/output0/add_2_grad/tuple/control_dependency_1"
  attr {
    key: "T"
    value {
      type: DT_FLOAT
    }
  }
}
node {
  name: "gradients/AddN"
  op: "AddN"
  input: "gradients/output0/scores0_grad/tuple/control_dependency_1"
  input: "gradients/output0/L2Loss_3_grad/mul"
  attr {
    key: "N"
    value {
      i: 2
    }
  }
  attr {
    key: "T"
    value {
      type: DT_FLOAT
    }
  }
  attr {
    key: "_class"
    value {
      list {
        s: "loc:@gradients/output0/scores0_grad/BiasAddGrad"
      }
    }
  }
}
node {
  name: "gradients/output0/dropout/mul_grad/Shape"
  op: "Shape"
  input: "output0/dropout/Div"
  attr {
    key: "T"
    value {
      type: DT_FLOAT
    }
  }
}
node {
  name: "gradients/output0/dropout/mul_grad/Shape_1"
  op: "Shape"
  input: "output0/dropout/Floor"
  attr {
    key: "T"
    value {
      type: DT_FLOAT
    }
  }
}
node {
  name: "gradients/output0/dropout/mul_grad/BroadcastGradientArgs"
  op: "BroadcastGradientArgs"
  input: "gradients/output0/dropout/mul_grad/Shape"
  input: "gradients/output0/dropout/mul_grad/Shape_1"
}
node {
  name: "gradients/output0/dropout/mul_grad/mul"
  op: "Mul"
  input: "gradients/output0/scores0/MatMul_grad/tuple/control_dependency"
  input: "output0/dropout/Floor"
  attr {
    key: "T"
    value {
      type: DT_FLOAT
    }
  }
}
node {
  name: "gradients/output0/dropout/mul_grad/Sum"
  op: "Sum"
  input: "gradients/output0/dropout/mul_grad/mul"
  input: "gradients/output0/dropout/mul_grad/BroadcastGradientArgs"
  attr {
    key: "T"
    value {
      type: DT_FLOAT
    }
  }
  attr {
    key: "keep_dims"
    value {
      b: false
    }
  }
}
node {
  name: "gradients/output0/dropout/mul_grad/Reshape"
  op: "Reshape"
  input: "gradients/output0/dropout/mul_grad/Sum"
  input: "gradients/output0/dropout/mul_grad/Shape"
  attr {
    key: "T"
    value {
      type: DT_FLOAT
    }
  }
}
node {
  name: "gradients/output0/dropout/mul_grad/mul_1"
  op: "Mul"
  input: "output0/dropout/Div"
  input: "gradients/output0/scores0/MatMul_grad/tuple/control_dependency"
  attr {
    key: "T"
    value {
      type: DT_FLOAT
    }
  }
}
node {
  name: "gradients/output0/dropout/mul_grad/Sum_1"
  op: "Sum"
  input: "gradients/output0/dropout/mul_grad/mul_1"
  input: "gradients/output0/dropout/mul_grad/BroadcastGradientArgs:1"
  attr {
    key: "T"
    value {
      type: DT_FLOAT
    }
  }
  attr {
    key: "keep_dims"
    value {
      b: false
    }
  }
}
node {
  name: "gradients/output0/dropout/mul_grad/Reshape_1"
  op: "Reshape"
  input: "gradients/output0/dropout/mul_grad/Sum_1"
  input: "gradients/output0/dropout/mul_grad/Shape_1"
  attr {
    key: "T"
    value {
      type: DT_FLOAT
    }
  }
}
node {
  name: "gradients/output0/dropout/mul_grad/tuple/group_deps"
  op: "NoOp"
  input: "^gradients/output0/dropout/mul_grad/Reshape"
  input: "^gradients/output0/dropout/mul_grad/Reshape_1"
}
node {
  name: "gradients/output0/dropout/mul_grad/tuple/control_dependency"
  op: "Identity"
  input: "gradients/output0/dropout/mul_grad/Reshape"
  input: "^gradients/output0/dropout/mul_grad/tuple/group_deps"
  attr {
    key: "T"
    value {
      type: DT_FLOAT
    }
  }
  attr {
    key: "_class"
    value {
      list {
        s: "loc:@gradients/output0/dropout/mul_grad/Reshape"
      }
    }
  }
}
node {
  name: "gradients/output0/dropout/mul_grad/tuple/control_dependency_1"
  op: "Identity"
  input: "gradients/output0/dropout/mul_grad/Reshape_1"
  input: "^gradients/output0/dropout/mul_grad/tuple/group_deps"
  attr {
    key: "T"
    value {
      type: DT_FLOAT
    }
  }
  attr {
    key: "_class"
    value {
      list {
        s: "loc:@gradients/output0/dropout/mul_grad/Reshape_1"
      }
    }
  }
}
node {
  name: "gradients/output0/add_grad/Shape"
  op: "Const"
  attr {
    key: "dtype"
    value {
      type: DT_INT32
    }
  }
  attr {
    key: "value"
    value {
      tensor {
        dtype: DT_INT32
        tensor_shape {
          dim {
          }
        }
      }
    }
  }
}
node {
  name: "gradients/output0/add_grad/Shape_1"
  op: "Const"
  attr {
    key: "dtype"
    value {
      type: DT_INT32
    }
  }
  attr {
    key: "value"
    value {
      tensor {
        dtype: DT_INT32
        tensor_shape {
          dim {
          }
        }
      }
    }
  }
}
node {
  name: "gradients/output0/add_grad/BroadcastGradientArgs"
  op: "BroadcastGradientArgs"
  input: "gradients/output0/add_grad/Shape"
  input: "gradients/output0/add_grad/Shape_1"
}
node {
  name: "gradients/output0/add_grad/Sum"
  op: "Sum"
  input: "gradients/output0/add_1_grad/tuple/control_dependency"
  input: "gradients/output0/add_grad/BroadcastGradientArgs"
  attr {
    key: "T"
    value {
      type: DT_FLOAT
    }
  }
  attr {
    key: "keep_dims"
    value {
      b: false
    }
  }
}
node {
  name: "gradients/output0/add_grad/Reshape"
  op: "Reshape"
  input: "gradients/output0/add_grad/Sum"
  input: "gradients/output0/add_grad/Shape"
  attr {
    key: "T"
    value {
      type: DT_FLOAT
    }
  }
}
node {
  name: "gradients/output0/add_grad/Sum_1"
  op: "Sum"
  input: "gradients/output0/add_1_grad/tuple/control_dependency"
  input: "gradients/output0/add_grad/BroadcastGradientArgs:1"
  attr {
    key: "T"
    value {
      type: DT_FLOAT
    }
  }
  attr {
    key: "keep_dims"
    value {
      b: false
    }
  }
}
node {
  name: "gradients/output0/add_grad/Reshape_1"
  op: "Reshape"
  input: "gradients/output0/add_grad/Sum_1"
  input: "gradients/output0/add_grad/Shape_1"
  attr {
    key: "T"
    value {
      type: DT_FLOAT
    }
  }
}
node {
  name: "gradients/output0/add_grad/tuple/group_deps"
  op: "NoOp"
  input: "^gradients/output0/add_grad/Reshape"
  input: "^gradients/output0/add_grad/Reshape_1"
}
node {
  name: "gradients/output0/add_grad/tuple/control_dependency"
  op: "Identity"
  input: "gradients/output0/add_grad/Reshape"
  input: "^gradients/output0/add_grad/tuple/group_deps"
  attr {
    key: "T"
    value {
      type: DT_FLOAT
    }
  }
  attr {
    key: "_class"
    value {
      list {
        s: "loc:@gradients/output0/add_grad/Reshape"
      }
    }
  }
}
node {
  name: "gradients/output0/add_grad/tuple/control_dependency_1"
  op: "Identity"
  input: "gradients/output0/add_grad/Reshape_1"
  input: "^gradients/output0/add_grad/tuple/group_deps"
  attr {
    key: "T"
    value {
      type: DT_FLOAT
    }
  }
  attr {
    key: "_class"
    value {
      list {
        s: "loc:@gradients/output0/add_grad/Reshape_1"
      }
    }
  }
}
node {
  name: "gradients/output0/L2Loss_1_grad/mul"
  op: "Mul"
  input: "output0/b0/read"
  input: "gradients/output0/add_1_grad/tuple/control_dependency_1"
  attr {
    key: "T"
    value {
      type: DT_FLOAT
    }
  }
}
node {
  name: "gradients/AddN_1"
  op: "AddN"
  input: "gradients/output0/scores0/MatMul_grad/tuple/control_dependency_1"
  input: "gradients/output0/L2Loss_2_grad/mul"
  attr {
    key: "N"
    value {
      i: 2
    }
  }
  attr {
    key: "T"
    value {
      type: DT_FLOAT
    }
  }
  attr {
    key: "_class"
    value {
      list {
        s: "loc:@gradients/output0/scores0/MatMul_grad/MatMul_1"
      }
    }
  }
}
node {
  name: "gradients/output0/dropout/Div_grad/Shape"
  op: "Shape"
  input: "output0/Sigmoid"
  attr {
    key: "T"
    value {
      type: DT_FLOAT
    }
  }
}
node {
  name: "gradients/output0/dropout/Div_grad/Shape_1"
  op: "Shape"
  input: "dropout_keep_prob"
  attr {
    key: "T"
    value {
      type: DT_FLOAT
    }
  }
}
node {
  name: "gradients/output0/dropout/Div_grad/BroadcastGradientArgs"
  op: "BroadcastGradientArgs"
  input: "gradients/output0/dropout/Div_grad/Shape"
  input: "gradients/output0/dropout/Div_grad/Shape_1"
}
node {
  name: "gradients/output0/dropout/Div_grad/truediv"
  op: "Div"
  input: "gradients/output0/dropout/mul_grad/tuple/control_dependency"
  input: "dropout_keep_prob"
  attr {
    key: "T"
    value {
      type: DT_FLOAT
    }
  }
}
node {
  name: "gradients/output0/dropout/Div_grad/Sum"
  op: "Sum"
  input: "gradients/output0/dropout/Div_grad/truediv"
  input: "gradients/output0/dropout/Div_grad/BroadcastGradientArgs"
  attr {
    key: "T"
    value {
      type: DT_FLOAT
    }
  }
  attr {
    key: "keep_dims"
    value {
      b: false
    }
  }
}
node {
  name: "gradients/output0/dropout/Div_grad/Reshape"
  op: "Reshape"
  input: "gradients/output0/dropout/Div_grad/Sum"
  input: "gradients/output0/dropout/Div_grad/Shape"
  attr {
    key: "T"
    value {
      type: DT_FLOAT
    }
  }
}
node {
  name: "gradients/output0/dropout/Div_grad/Neg"
  op: "Neg"
  input: "output0/Sigmoid"
  attr {
    key: "T"
    value {
      type: DT_FLOAT
    }
  }
}
node {
  name: "gradients/output0/dropout/Div_grad/Square"
  op: "Square"
  input: "dropout_keep_prob"
  attr {
    key: "T"
    value {
      type: DT_FLOAT
    }
  }
}
node {
  name: "gradients/output0/dropout/Div_grad/truediv_1"
  op: "Div"
  input: "gradients/output0/dropout/Div_grad/Neg"
  input: "gradients/output0/dropout/Div_grad/Square"
  attr {
    key: "T"
    value {
      type: DT_FLOAT
    }
  }
}
node {
  name: "gradients/output0/dropout/Div_grad/mul"
  op: "Mul"
  input: "gradients/output0/dropout/mul_grad/tuple/control_dependency"
  input: "gradients/output0/dropout/Div_grad/truediv_1"
  attr {
    key: "T"
    value {
      type: DT_FLOAT
    }
  }
}
node {
  name: "gradients/output0/dropout/Div_grad/Sum_1"
  op: "Sum"
  input: "gradients/output0/dropout/Div_grad/mul"
  input: "gradients/output0/dropout/Div_grad/BroadcastGradientArgs:1"
  attr {
    key: "T"
    value {
      type: DT_FLOAT
    }
  }
  attr {
    key: "keep_dims"
    value {
      b: false
    }
  }
}
node {
  name: "gradients/output0/dropout/Div_grad/Reshape_1"
  op: "Reshape"
  input: "gradients/output0/dropout/Div_grad/Sum_1"
  input: "gradients/output0/dropout/Div_grad/Shape_1"
  attr {
    key: "T"
    value {
      type: DT_FLOAT
    }
  }
}
node {
  name: "gradients/output0/dropout/Div_grad/tuple/group_deps"
  op: "NoOp"
  input: "^gradients/output0/dropout/Div_grad/Reshape"
  input: "^gradients/output0/dropout/Div_grad/Reshape_1"
}
node {
  name: "gradients/output0/dropout/Div_grad/tuple/control_dependency"
  op: "Identity"
  input: "gradients/output0/dropout/Div_grad/Reshape"
  input: "^gradients/output0/dropout/Div_grad/tuple/group_deps"
  attr {
    key: "T"
    value {
      type: DT_FLOAT
    }
  }
  attr {
    key: "_class"
    value {
      list {
        s: "loc:@gradients/output0/dropout/Div_grad/Reshape"
      }
    }
  }
}
node {
  name: "gradients/output0/dropout/Div_grad/tuple/control_dependency_1"
  op: "Identity"
  input: "gradients/output0/dropout/Div_grad/Reshape_1"
  input: "^gradients/output0/dropout/Div_grad/tuple/group_deps"
  attr {
    key: "T"
    value {
      type: DT_FLOAT
    }
  }
  attr {
    key: "_class"
    value {
      list {
        s: "loc:@gradients/output0/dropout/Div_grad/Reshape_1"
      }
    }
  }
}
node {
  name: "gradients/output0/L2Loss_grad/mul"
  op: "Mul"
  input: "W0/read"
  input: "gradients/output0/add_grad/tuple/control_dependency_1"
  attr {
    key: "T"
    value {
      type: DT_FLOAT
    }
  }
}
node {
  name: "gradients/output0/Sigmoid_grad/SigmoidGrad"
  op: "SigmoidGrad"
  input: "output0/Sigmoid"
  input: "gradients/output0/dropout/Div_grad/tuple/control_dependency"
  attr {
    key: "T"
    value {
      type: DT_FLOAT
    }
  }
}
node {
  name: "gradients/output0/BiasAdd_grad/BiasAddGrad"
  op: "BiasAddGrad"
  input: "gradients/output0/Sigmoid_grad/SigmoidGrad"
  attr {
    key: "T"
    value {
      type: DT_FLOAT
    }
  }
  attr {
    key: "data_format"
    value {
      s: "NHWC"
    }
  }
}
node {
  name: "gradients/output0/BiasAdd_grad/tuple/group_deps"
  op: "NoOp"
  input: "^gradients/output0/Sigmoid_grad/SigmoidGrad"
  input: "^gradients/output0/BiasAdd_grad/BiasAddGrad"
}
node {
  name: "gradients/output0/BiasAdd_grad/tuple/control_dependency"
  op: "Identity"
  input: "gradients/output0/Sigmoid_grad/SigmoidGrad"
  input: "^gradients/output0/BiasAdd_grad/tuple/group_deps"
  attr {
    key: "T"
    value {
      type: DT_FLOAT
    }
  }
  attr {
    key: "_class"
    value {
      list {
        s: "loc:@gradients/output0/Sigmoid_grad/SigmoidGrad"
      }
    }
  }
}
node {
  name: "gradients/output0/BiasAdd_grad/tuple/control_dependency_1"
  op: "Identity"
  input: "gradients/output0/BiasAdd_grad/BiasAddGrad"
  input: "^gradients/output0/BiasAdd_grad/tuple/group_deps"
  attr {
    key: "T"
    value {
      type: DT_FLOAT
    }
  }
  attr {
    key: "_class"
    value {
      list {
        s: "loc:@gradients/output0/BiasAdd_grad/BiasAddGrad"
      }
    }
  }
}
node {
  name: "gradients/output0/MatMul_grad/MatMul"
  op: "MatMul"
  input: "gradients/output0/BiasAdd_grad/tuple/control_dependency"
  input: "W0/read"
  attr {
    key: "T"
    value {
      type: DT_FLOAT
    }
  }
  attr {
    key: "transpose_a"
    value {
      b: false
    }
  }
  attr {
    key: "transpose_b"
    value {
      b: true
    }
  }
}
node {
  name: "gradients/output0/MatMul_grad/MatMul_1"
  op: "MatMul"
  input: "dropout/dropout/mul"
  input: "gradients/output0/BiasAdd_grad/tuple/control_dependency"
  attr {
    key: "T"
    value {
      type: DT_FLOAT
    }
  }
  attr {
    key: "transpose_a"
    value {
      b: true
    }
  }
  attr {
    key: "transpose_b"
    value {
      b: false
    }
  }
}
node {
  name: "gradients/output0/MatMul_grad/tuple/group_deps"
  op: "NoOp"
  input: "^gradients/output0/MatMul_grad/MatMul"
  input: "^gradients/output0/MatMul_grad/MatMul_1"
}
node {
  name: "gradients/output0/MatMul_grad/tuple/control_dependency"
  op: "Identity"
  input: "gradients/output0/MatMul_grad/MatMul"
  input: "^gradients/output0/MatMul_grad/tuple/group_deps"
  attr {
    key: "T"
    value {
      type: DT_FLOAT
    }
  }
  attr {
    key: "_class"
    value {
      list {
        s: "loc:@gradients/output0/MatMul_grad/MatMul"
      }
    }
  }
}
node {
  name: "gradients/output0/MatMul_grad/tuple/control_dependency_1"
  op: "Identity"
  input: "gradients/output0/MatMul_grad/MatMul_1"
  input: "^gradients/output0/MatMul_grad/tuple/group_deps"
  attr {
    key: "T"
    value {
      type: DT_FLOAT
    }
  }
  attr {
    key: "_class"
    value {
      list {
        s: "loc:@gradients/output0/MatMul_grad/MatMul_1"
      }
    }
  }
}
node {
  name: "gradients/AddN_2"
  op: "AddN"
  input: "gradients/output0/L2Loss_1_grad/mul"
  input: "gradients/output0/BiasAdd_grad/tuple/control_dependency_1"
  attr {
    key: "N"
    value {
      i: 2
    }
  }
  attr {
    key: "T"
    value {
      type: DT_FLOAT
    }
  }
  attr {
    key: "_class"
    value {
      list {
        s: "loc:@gradients/output0/L2Loss_1_grad/mul"
      }
    }
  }
}
node {
  name: "gradients/dropout/dropout/mul_grad/Shape"
  op: "Shape"
  input: "dropout/dropout/Div"
  attr {
    key: "T"
    value {
      type: DT_FLOAT
    }
  }
}
node {
  name: "gradients/dropout/dropout/mul_grad/Shape_1"
  op: "Shape"
  input: "dropout/dropout/Floor"
  attr {
    key: "T"
    value {
      type: DT_FLOAT
    }
  }
}
node {
  name: "gradients/dropout/dropout/mul_grad/BroadcastGradientArgs"
  op: "BroadcastGradientArgs"
  input: "gradients/dropout/dropout/mul_grad/Shape"
  input: "gradients/dropout/dropout/mul_grad/Shape_1"
}
node {
  name: "gradients/dropout/dropout/mul_grad/mul"
  op: "Mul"
  input: "gradients/output0/MatMul_grad/tuple/control_dependency"
  input: "dropout/dropout/Floor"
  attr {
    key: "T"
    value {
      type: DT_FLOAT
    }
  }
}
node {
  name: "gradients/dropout/dropout/mul_grad/Sum"
  op: "Sum"
  input: "gradients/dropout/dropout/mul_grad/mul"
  input: "gradients/dropout/dropout/mul_grad/BroadcastGradientArgs"
  attr {
    key: "T"
    value {
      type: DT_FLOAT
    }
  }
  attr {
    key: "keep_dims"
    value {
      b: false
    }
  }
}
node {
  name: "gradients/dropout/dropout/mul_grad/Reshape"
  op: "Reshape"
  input: "gradients/dropout/dropout/mul_grad/Sum"
  input: "gradients/dropout/dropout/mul_grad/Shape"
  attr {
    key: "T"
    value {
      type: DT_FLOAT
    }
  }
}
node {
  name: "gradients/dropout/dropout/mul_grad/mul_1"
  op: "Mul"
  input: "dropout/dropout/Div"
  input: "gradients/output0/MatMul_grad/tuple/control_dependency"
  attr {
    key: "T"
    value {
      type: DT_FLOAT
    }
  }
}
node {
  name: "gradients/dropout/dropout/mul_grad/Sum_1"
  op: "Sum"
  input: "gradients/dropout/dropout/mul_grad/mul_1"
  input: "gradients/dropout/dropout/mul_grad/BroadcastGradientArgs:1"
  attr {
    key: "T"
    value {
      type: DT_FLOAT
    }
  }
  attr {
    key: "keep_dims"
    value {
      b: false
    }
  }
}
node {
  name: "gradients/dropout/dropout/mul_grad/Reshape_1"
  op: "Reshape"
  input: "gradients/dropout/dropout/mul_grad/Sum_1"
  input: "gradients/dropout/dropout/mul_grad/Shape_1"
  attr {
    key: "T"
    value {
      type: DT_FLOAT
    }
  }
}
node {
  name: "gradients/dropout/dropout/mul_grad/tuple/group_deps"
  op: "NoOp"
  input: "^gradients/dropout/dropout/mul_grad/Reshape"
  input: "^gradients/dropout/dropout/mul_grad/Reshape_1"
}
node {
  name: "gradients/dropout/dropout/mul_grad/tuple/control_dependency"
  op: "Identity"
  input: "gradients/dropout/dropout/mul_grad/Reshape"
  input: "^gradients/dropout/dropout/mul_grad/tuple/group_deps"
  attr {
    key: "T"
    value {
      type: DT_FLOAT
    }
  }
  attr {
    key: "_class"
    value {
      list {
        s: "loc:@gradients/dropout/dropout/mul_grad/Reshape"
      }
    }
  }
}
node {
  name: "gradients/dropout/dropout/mul_grad/tuple/control_dependency_1"
  op: "Identity"
  input: "gradients/dropout/dropout/mul_grad/Reshape_1"
  input: "^gradients/dropout/dropout/mul_grad/tuple/group_deps"
  attr {
    key: "T"
    value {
      type: DT_FLOAT
    }
  }
  attr {
    key: "_class"
    value {
      list {
        s: "loc:@gradients/dropout/dropout/mul_grad/Reshape_1"
      }
    }
  }
}
node {
  name: "gradients/AddN_3"
  op: "AddN"
  input: "gradients/output0/L2Loss_grad/mul"
  input: "gradients/output0/MatMul_grad/tuple/control_dependency_1"
  attr {
    key: "N"
    value {
      i: 2
    }
  }
  attr {
    key: "T"
    value {
      type: DT_FLOAT
    }
  }
  attr {
    key: "_class"
    value {
      list {
        s: "loc:@gradients/output0/L2Loss_grad/mul"
      }
    }
  }
}
node {
  name: "gradients/dropout/dropout/Div_grad/Shape"
  op: "Shape"
  input: "Reshape"
  attr {
    key: "T"
    value {
      type: DT_FLOAT
    }
  }
}
node {
  name: "gradients/dropout/dropout/Div_grad/Shape_1"
  op: "Shape"
  input: "dropout_keep_prob"
  attr {
    key: "T"
    value {
      type: DT_FLOAT
    }
  }
}
node {
  name: "gradients/dropout/dropout/Div_grad/BroadcastGradientArgs"
  op: "BroadcastGradientArgs"
  input: "gradients/dropout/dropout/Div_grad/Shape"
  input: "gradients/dropout/dropout/Div_grad/Shape_1"
}
node {
  name: "gradients/dropout/dropout/Div_grad/truediv"
  op: "Div"
  input: "gradients/dropout/dropout/mul_grad/tuple/control_dependency"
  input: "dropout_keep_prob"
  attr {
    key: "T"
    value {
      type: DT_FLOAT
    }
  }
}
node {
  name: "gradients/dropout/dropout/Div_grad/Sum"
  op: "Sum"
  input: "gradients/dropout/dropout/Div_grad/truediv"
  input: "gradients/dropout/dropout/Div_grad/BroadcastGradientArgs"
  attr {
    key: "T"
    value {
      type: DT_FLOAT
    }
  }
  attr {
    key: "keep_dims"
    value {
      b: false
    }
  }
}
node {
  name: "gradients/dropout/dropout/Div_grad/Reshape"
  op: "Reshape"
  input: "gradients/dropout/dropout/Div_grad/Sum"
  input: "gradients/dropout/dropout/Div_grad/Shape"
  attr {
    key: "T"
    value {
      type: DT_FLOAT
    }
  }
}
node {
  name: "gradients/dropout/dropout/Div_grad/Neg"
  op: "Neg"
  input: "Reshape"
  attr {
    key: "T"
    value {
      type: DT_FLOAT
    }
  }
}
node {
  name: "gradients/dropout/dropout/Div_grad/Square"
  op: "Square"
  input: "dropout_keep_prob"
  attr {
    key: "T"
    value {
      type: DT_FLOAT
    }
  }
}
node {
  name: "gradients/dropout/dropout/Div_grad/truediv_1"
  op: "Div"
  input: "gradients/dropout/dropout/Div_grad/Neg"
  input: "gradients/dropout/dropout/Div_grad/Square"
  attr {
    key: "T"
    value {
      type: DT_FLOAT
    }
  }
}
node {
  name: "gradients/dropout/dropout/Div_grad/mul"
  op: "Mul"
  input: "gradients/dropout/dropout/mul_grad/tuple/control_dependency"
  input: "gradients/dropout/dropout/Div_grad/truediv_1"
  attr {
    key: "T"
    value {
      type: DT_FLOAT
    }
  }
}
node {
  name: "gradients/dropout/dropout/Div_grad/Sum_1"
  op: "Sum"
  input: "gradients/dropout/dropout/Div_grad/mul"
  input: "gradients/dropout/dropout/Div_grad/BroadcastGradientArgs:1"
  attr {
    key: "T"
    value {
      type: DT_FLOAT
    }
  }
  attr {
    key: "keep_dims"
    value {
      b: false
    }
  }
}
node {
  name: "gradients/dropout/dropout/Div_grad/Reshape_1"
  op: "Reshape"
  input: "gradients/dropout/dropout/Div_grad/Sum_1"
  input: "gradients/dropout/dropout/Div_grad/Shape_1"
  attr {
    key: "T"
    value {
      type: DT_FLOAT
    }
  }
}
node {
  name: "gradients/dropout/dropout/Div_grad/tuple/group_deps"
  op: "NoOp"
  input: "^gradients/dropout/dropout/Div_grad/Reshape"
  input: "^gradients/dropout/dropout/Div_grad/Reshape_1"
}
node {
  name: "gradients/dropout/dropout/Div_grad/tuple/control_dependency"
  op: "Identity"
  input: "gradients/dropout/dropout/Div_grad/Reshape"
  input: "^gradients/dropout/dropout/Div_grad/tuple/group_deps"
  attr {
    key: "T"
    value {
      type: DT_FLOAT
    }
  }
  attr {
    key: "_class"
    value {
      list {
        s: "loc:@gradients/dropout/dropout/Div_grad/Reshape"
      }
    }
  }
}
node {
  name: "gradients/dropout/dropout/Div_grad/tuple/control_dependency_1"
  op: "Identity"
  input: "gradients/dropout/dropout/Div_grad/Reshape_1"
  input: "^gradients/dropout/dropout/Div_grad/tuple/group_deps"
  attr {
    key: "T"
    value {
      type: DT_FLOAT
    }
  }
  attr {
    key: "_class"
    value {
      list {
        s: "loc:@gradients/dropout/dropout/Div_grad/Reshape_1"
      }
    }
  }
}
node {
  name: "gradients/Reshape_grad/Shape"
  op: "Shape"
  input: "concat"
  attr {
    key: "T"
    value {
      type: DT_FLOAT
    }
  }
}
node {
  name: "gradients/Reshape_grad/Reshape"
  op: "Reshape"
  input: "gradients/dropout/dropout/Div_grad/tuple/control_dependency"
  input: "gradients/Reshape_grad/Shape"
  attr {
    key: "T"
    value {
      type: DT_FLOAT
    }
  }
}
node {
  name: "gradients/concat_grad/Shape"
  op: "Shape"
  input: "conv-maxpool-2/pool"
  attr {
    key: "T"
    value {
      type: DT_FLOAT
    }
  }
}
node {
  name: "gradients/concat_grad/ShapeN"
  op: "ShapeN"
  input: "conv-maxpool-2/pool"
  input: "conv-maxpool-3/pool"
  input: "conv-maxpool-4/pool"
  attr {
    key: "N"
    value {
      i: 3
    }
  }
  attr {
    key: "T"
    value {
      type: DT_FLOAT
    }
  }
}
node {
  name: "gradients/concat_grad/ConcatOffset"
  op: "ConcatOffset"
  input: "concat/concat_dim"
  input: "gradients/concat_grad/ShapeN"
  input: "gradients/concat_grad/ShapeN:1"
  input: "gradients/concat_grad/ShapeN:2"
  attr {
    key: "N"
    value {
      i: 3
    }
  }
}
node {
  name: "gradients/concat_grad/Slice"
  op: "Slice"
  input: "gradients/Reshape_grad/Reshape"
  input: "gradients/concat_grad/ConcatOffset"
  input: "gradients/concat_grad/ShapeN"
  attr {
    key: "Index"
    value {
      type: DT_INT32
    }
  }
  attr {
    key: "T"
    value {
      type: DT_FLOAT
    }
  }
}
node {
  name: "gradients/concat_grad/Slice_1"
  op: "Slice"
  input: "gradients/Reshape_grad/Reshape"
  input: "gradients/concat_grad/ConcatOffset:1"
  input: "gradients/concat_grad/ShapeN:1"
  attr {
    key: "Index"
    value {
      type: DT_INT32
    }
  }
  attr {
    key: "T"
    value {
      type: DT_FLOAT
    }
  }
}
node {
  name: "gradients/concat_grad/Slice_2"
  op: "Slice"
  input: "gradients/Reshape_grad/Reshape"
  input: "gradients/concat_grad/ConcatOffset:2"
  input: "gradients/concat_grad/ShapeN:2"
  attr {
    key: "Index"
    value {
      type: DT_INT32
    }
  }
  attr {
    key: "T"
    value {
      type: DT_FLOAT
    }
  }
}
node {
  name: "gradients/concat_grad/tuple/group_deps"
  op: "NoOp"
  input: "^gradients/concat_grad/Slice"
  input: "^gradients/concat_grad/Slice_1"
  input: "^gradients/concat_grad/Slice_2"
}
node {
  name: "gradients/concat_grad/tuple/control_dependency"
  op: "Identity"
  input: "gradients/concat_grad/Slice"
  input: "^gradients/concat_grad/tuple/group_deps"
  attr {
    key: "T"
    value {
      type: DT_FLOAT
    }
  }
  attr {
    key: "_class"
    value {
      list {
        s: "loc:@gradients/concat_grad/Slice"
      }
    }
  }
}
node {
  name: "gradients/concat_grad/tuple/control_dependency_1"
  op: "Identity"
  input: "gradients/concat_grad/Slice_1"
  input: "^gradients/concat_grad/tuple/group_deps"
  attr {
    key: "T"
    value {
      type: DT_FLOAT
    }
  }
  attr {
    key: "_class"
    value {
      list {
        s: "loc:@gradients/concat_grad/Slice_1"
      }
    }
  }
}
node {
  name: "gradients/concat_grad/tuple/control_dependency_2"
  op: "Identity"
  input: "gradients/concat_grad/Slice_2"
  input: "^gradients/concat_grad/tuple/group_deps"
  attr {
    key: "T"
    value {
      type: DT_FLOAT
    }
  }
  attr {
    key: "_class"
    value {
      list {
        s: "loc:@gradients/concat_grad/Slice_2"
      }
    }
  }
}
node {
  name: "gradients/conv-maxpool-2/pool_grad/MaxPoolGrad"
  op: "MaxPoolGrad"
  input: "conv-maxpool-2/relu"
  input: "conv-maxpool-2/pool"
  input: "gradients/concat_grad/tuple/control_dependency"
  attr {
    key: "T"
    value {
      type: DT_FLOAT
    }
  }
  attr {
    key: "data_format"
    value {
      s: "NHWC"
    }
  }
  attr {
    key: "ksize"
    value {
      list {
        i: 1
        i: 99
        i: 1
        i: 1
      }
    }
  }
  attr {
    key: "padding"
    value {
      s: "VALID"
    }
  }
  attr {
    key: "strides"
    value {
      list {
        i: 1
        i: 1
        i: 1
        i: 1
      }
    }
  }
}
node {
  name: "gradients/conv-maxpool-3/pool_grad/MaxPoolGrad"
  op: "MaxPoolGrad"
  input: "conv-maxpool-3/relu"
  input: "conv-maxpool-3/pool"
  input: "gradients/concat_grad/tuple/control_dependency_1"
  attr {
    key: "T"
    value {
      type: DT_FLOAT
    }
  }
  attr {
    key: "data_format"
    value {
      s: "NHWC"
    }
  }
  attr {
    key: "ksize"
    value {
      list {
        i: 1
        i: 98
        i: 1
        i: 1
      }
    }
  }
  attr {
    key: "padding"
    value {
      s: "VALID"
    }
  }
  attr {
    key: "strides"
    value {
      list {
        i: 1
        i: 1
        i: 1
        i: 1
      }
    }
  }
}
node {
  name: "gradients/conv-maxpool-4/pool_grad/MaxPoolGrad"
  op: "MaxPoolGrad"
  input: "conv-maxpool-4/relu"
  input: "conv-maxpool-4/pool"
  input: "gradients/concat_grad/tuple/control_dependency_2"
  attr {
    key: "T"
    value {
      type: DT_FLOAT
    }
  }
  attr {
    key: "data_format"
    value {
      s: "NHWC"
    }
  }
  attr {
    key: "ksize"
    value {
      list {
        i: 1
        i: 97
        i: 1
        i: 1
      }
    }
  }
  attr {
    key: "padding"
    value {
      s: "VALID"
    }
  }
  attr {
    key: "strides"
    value {
      list {
        i: 1
        i: 1
        i: 1
        i: 1
      }
    }
  }
}
node {
  name: "gradients/conv-maxpool-2/relu_grad/ReluGrad"
  op: "ReluGrad"
  input: "gradients/conv-maxpool-2/pool_grad/MaxPoolGrad"
  input: "conv-maxpool-2/relu"
  attr {
    key: "T"
    value {
      type: DT_FLOAT
    }
  }
}
node {
  name: "gradients/conv-maxpool-3/relu_grad/ReluGrad"
  op: "ReluGrad"
  input: "gradients/conv-maxpool-3/pool_grad/MaxPoolGrad"
  input: "conv-maxpool-3/relu"
  attr {
    key: "T"
    value {
      type: DT_FLOAT
    }
  }
}
node {
  name: "gradients/conv-maxpool-4/relu_grad/ReluGrad"
  op: "ReluGrad"
  input: "gradients/conv-maxpool-4/pool_grad/MaxPoolGrad"
  input: "conv-maxpool-4/relu"
  attr {
    key: "T"
    value {
      type: DT_FLOAT
    }
  }
}
node {
  name: "gradients/conv-maxpool-2/BiasAdd_grad/BiasAddGrad"
  op: "BiasAddGrad"
  input: "gradients/conv-maxpool-2/relu_grad/ReluGrad"
  attr {
    key: "T"
    value {
      type: DT_FLOAT
    }
  }
  attr {
    key: "data_format"
    value {
      s: "NHWC"
    }
  }
}
node {
  name: "gradients/conv-maxpool-2/BiasAdd_grad/tuple/group_deps"
  op: "NoOp"
  input: "^gradients/conv-maxpool-2/relu_grad/ReluGrad"
  input: "^gradients/conv-maxpool-2/BiasAdd_grad/BiasAddGrad"
}
node {
  name: "gradients/conv-maxpool-2/BiasAdd_grad/tuple/control_dependency"
  op: "Identity"
  input: "gradients/conv-maxpool-2/relu_grad/ReluGrad"
  input: "^gradients/conv-maxpool-2/BiasAdd_grad/tuple/group_deps"
  attr {
    key: "T"
    value {
      type: DT_FLOAT
    }
  }
  attr {
    key: "_class"
    value {
      list {
        s: "loc:@gradients/conv-maxpool-2/relu_grad/ReluGrad"
      }
    }
  }
}
node {
  name: "gradients/conv-maxpool-2/BiasAdd_grad/tuple/control_dependency_1"
  op: "Identity"
  input: "gradients/conv-maxpool-2/BiasAdd_grad/BiasAddGrad"
  input: "^gradients/conv-maxpool-2/BiasAdd_grad/tuple/group_deps"
  attr {
    key: "T"
    value {
      type: DT_FLOAT
    }
  }
  attr {
    key: "_class"
    value {
      list {
        s: "loc:@gradients/conv-maxpool-2/BiasAdd_grad/BiasAddGrad"
      }
    }
  }
}
node {
  name: "gradients/conv-maxpool-3/BiasAdd_grad/BiasAddGrad"
  op: "BiasAddGrad"
  input: "gradients/conv-maxpool-3/relu_grad/ReluGrad"
  attr {
    key: "T"
    value {
      type: DT_FLOAT
    }
  }
  attr {
    key: "data_format"
    value {
      s: "NHWC"
    }
  }
}
node {
  name: "gradients/conv-maxpool-3/BiasAdd_grad/tuple/group_deps"
  op: "NoOp"
  input: "^gradients/conv-maxpool-3/relu_grad/ReluGrad"
  input: "^gradients/conv-maxpool-3/BiasAdd_grad/BiasAddGrad"
}
node {
  name: "gradients/conv-maxpool-3/BiasAdd_grad/tuple/control_dependency"
  op: "Identity"
  input: "gradients/conv-maxpool-3/relu_grad/ReluGrad"
  input: "^gradients/conv-maxpool-3/BiasAdd_grad/tuple/group_deps"
  attr {
    key: "T"
    value {
      type: DT_FLOAT
    }
  }
  attr {
    key: "_class"
    value {
      list {
        s: "loc:@gradients/conv-maxpool-3/relu_grad/ReluGrad"
      }
    }
  }
}
node {
  name: "gradients/conv-maxpool-3/BiasAdd_grad/tuple/control_dependency_1"
  op: "Identity"
  input: "gradients/conv-maxpool-3/BiasAdd_grad/BiasAddGrad"
  input: "^gradients/conv-maxpool-3/BiasAdd_grad/tuple/group_deps"
  attr {
    key: "T"
    value {
      type: DT_FLOAT
    }
  }
  attr {
    key: "_class"
    value {
      list {
        s: "loc:@gradients/conv-maxpool-3/BiasAdd_grad/BiasAddGrad"
      }
    }
  }
}
node {
  name: "gradients/conv-maxpool-4/BiasAdd_grad/BiasAddGrad"
  op: "BiasAddGrad"
  input: "gradients/conv-maxpool-4/relu_grad/ReluGrad"
  attr {
    key: "T"
    value {
      type: DT_FLOAT
    }
  }
  attr {
    key: "data_format"
    value {
      s: "NHWC"
    }
  }
}
node {
  name: "gradients/conv-maxpool-4/BiasAdd_grad/tuple/group_deps"
  op: "NoOp"
  input: "^gradients/conv-maxpool-4/relu_grad/ReluGrad"
  input: "^gradients/conv-maxpool-4/BiasAdd_grad/BiasAddGrad"
}
node {
  name: "gradients/conv-maxpool-4/BiasAdd_grad/tuple/control_dependency"
  op: "Identity"
  input: "gradients/conv-maxpool-4/relu_grad/ReluGrad"
  input: "^gradients/conv-maxpool-4/BiasAdd_grad/tuple/group_deps"
  attr {
    key: "T"
    value {
      type: DT_FLOAT
    }
  }
  attr {
    key: "_class"
    value {
      list {
        s: "loc:@gradients/conv-maxpool-4/relu_grad/ReluGrad"
      }
    }
  }
}
node {
  name: "gradients/conv-maxpool-4/BiasAdd_grad/tuple/control_dependency_1"
  op: "Identity"
  input: "gradients/conv-maxpool-4/BiasAdd_grad/BiasAddGrad"
  input: "^gradients/conv-maxpool-4/BiasAdd_grad/tuple/group_deps"
  attr {
    key: "T"
    value {
      type: DT_FLOAT
    }
  }
  attr {
    key: "_class"
    value {
      list {
        s: "loc:@gradients/conv-maxpool-4/BiasAdd_grad/BiasAddGrad"
      }
    }
  }
}
node {
  name: "gradients/conv-maxpool-2/conv_grad/Shape"
  op: "Shape"
  input: "embedding/ExpandDims"
  attr {
    key: "T"
    value {
      type: DT_FLOAT
    }
  }
}
node {
  name: "gradients/conv-maxpool-2/conv_grad/Conv2DBackpropInput"
  op: "Conv2DBackpropInput"
  input: "gradients/conv-maxpool-2/conv_grad/Shape"
  input: "conv-maxpool-2/W/read"
  input: "gradients/conv-maxpool-2/BiasAdd_grad/tuple/control_dependency"
  attr {
    key: "T"
    value {
      type: DT_FLOAT
    }
  }
  attr {
    key: "data_format"
    value {
      s: "NHWC"
    }
  }
  attr {
    key: "padding"
    value {
      s: "VALID"
    }
  }
  attr {
    key: "strides"
    value {
      list {
        i: 1
        i: 1
        i: 1
        i: 1
      }
    }
  }
  attr {
    key: "use_cudnn_on_gpu"
    value {
      b: true
    }
  }
}
node {
  name: "gradients/conv-maxpool-2/conv_grad/Shape_1"
  op: "Const"
  attr {
    key: "dtype"
    value {
      type: DT_INT32
    }
  }
  attr {
    key: "value"
    value {
      tensor {
        dtype: DT_INT32
        tensor_shape {
          dim {
            size: 4
          }
        }
        tensor_content: "\002\000\000\000,\001\000\000\001\000\000\000\200\000\000\000"
      }
    }
  }
}
node {
  name: "gradients/conv-maxpool-2/conv_grad/Conv2DBackpropFilter"
  op: "Conv2DBackpropFilter"
  input: "embedding/ExpandDims"
  input: "gradients/conv-maxpool-2/conv_grad/Shape_1"
  input: "gradients/conv-maxpool-2/BiasAdd_grad/tuple/control_dependency"
  attr {
    key: "T"
    value {
      type: DT_FLOAT
    }
  }
  attr {
    key: "data_format"
    value {
      s: "NHWC"
    }
  }
  attr {
    key: "padding"
    value {
      s: "VALID"
    }
  }
  attr {
    key: "strides"
    value {
      list {
        i: 1
        i: 1
        i: 1
        i: 1
      }
    }
  }
  attr {
    key: "use_cudnn_on_gpu"
    value {
      b: true
    }
  }
}
node {
  name: "gradients/conv-maxpool-2/conv_grad/tuple/group_deps"
  op: "NoOp"
  input: "^gradients/conv-maxpool-2/conv_grad/Conv2DBackpropInput"
  input: "^gradients/conv-maxpool-2/conv_grad/Conv2DBackpropFilter"
}
node {
  name: "gradients/conv-maxpool-2/conv_grad/tuple/control_dependency"
  op: "Identity"
  input: "gradients/conv-maxpool-2/conv_grad/Conv2DBackpropInput"
  input: "^gradients/conv-maxpool-2/conv_grad/tuple/group_deps"
  attr {
    key: "T"
    value {
      type: DT_FLOAT
    }
  }
  attr {
    key: "_class"
    value {
      list {
        s: "loc:@gradients/conv-maxpool-2/conv_grad/Conv2DBackpropInput"
      }
    }
  }
}
node {
  name: "gradients/conv-maxpool-2/conv_grad/tuple/control_dependency_1"
  op: "Identity"
  input: "gradients/conv-maxpool-2/conv_grad/Conv2DBackpropFilter"
  input: "^gradients/conv-maxpool-2/conv_grad/tuple/group_deps"
  attr {
    key: "T"
    value {
      type: DT_FLOAT
    }
  }
  attr {
    key: "_class"
    value {
      list {
        s: "loc:@gradients/conv-maxpool-2/conv_grad/Conv2DBackpropFilter"
      }
    }
  }
}
node {
  name: "gradients/conv-maxpool-3/conv_grad/Shape"
  op: "Shape"
  input: "embedding/ExpandDims"
  attr {
    key: "T"
    value {
      type: DT_FLOAT
    }
  }
}
node {
  name: "gradients/conv-maxpool-3/conv_grad/Conv2DBackpropInput"
  op: "Conv2DBackpropInput"
  input: "gradients/conv-maxpool-3/conv_grad/Shape"
  input: "conv-maxpool-3/W/read"
  input: "gradients/conv-maxpool-3/BiasAdd_grad/tuple/control_dependency"
  attr {
    key: "T"
    value {
      type: DT_FLOAT
    }
  }
  attr {
    key: "data_format"
    value {
      s: "NHWC"
    }
  }
  attr {
    key: "padding"
    value {
      s: "VALID"
    }
  }
  attr {
    key: "strides"
    value {
      list {
        i: 1
        i: 1
        i: 1
        i: 1
      }
    }
  }
  attr {
    key: "use_cudnn_on_gpu"
    value {
      b: true
    }
  }
}
node {
  name: "gradients/conv-maxpool-3/conv_grad/Shape_1"
  op: "Const"
  attr {
    key: "dtype"
    value {
      type: DT_INT32
    }
  }
  attr {
    key: "value"
    value {
      tensor {
        dtype: DT_INT32
        tensor_shape {
          dim {
            size: 4
          }
        }
        tensor_content: "\003\000\000\000,\001\000\000\001\000\000\000\200\000\000\000"
      }
    }
  }
}
node {
  name: "gradients/conv-maxpool-3/conv_grad/Conv2DBackpropFilter"
  op: "Conv2DBackpropFilter"
  input: "embedding/ExpandDims"
  input: "gradients/conv-maxpool-3/conv_grad/Shape_1"
  input: "gradients/conv-maxpool-3/BiasAdd_grad/tuple/control_dependency"
  attr {
    key: "T"
    value {
      type: DT_FLOAT
    }
  }
  attr {
    key: "data_format"
    value {
      s: "NHWC"
    }
  }
  attr {
    key: "padding"
    value {
      s: "VALID"
    }
  }
  attr {
    key: "strides"
    value {
      list {
        i: 1
        i: 1
        i: 1
        i: 1
      }
    }
  }
  attr {
    key: "use_cudnn_on_gpu"
    value {
      b: true
    }
  }
}
node {
  name: "gradients/conv-maxpool-3/conv_grad/tuple/group_deps"
  op: "NoOp"
  input: "^gradients/conv-maxpool-3/conv_grad/Conv2DBackpropInput"
  input: "^gradients/conv-maxpool-3/conv_grad/Conv2DBackpropFilter"
}
node {
  name: "gradients/conv-maxpool-3/conv_grad/tuple/control_dependency"
  op: "Identity"
  input: "gradients/conv-maxpool-3/conv_grad/Conv2DBackpropInput"
  input: "^gradients/conv-maxpool-3/conv_grad/tuple/group_deps"
  attr {
    key: "T"
    value {
      type: DT_FLOAT
    }
  }
  attr {
    key: "_class"
    value {
      list {
        s: "loc:@gradients/conv-maxpool-3/conv_grad/Conv2DBackpropInput"
      }
    }
  }
}
node {
  name: "gradients/conv-maxpool-3/conv_grad/tuple/control_dependency_1"
  op: "Identity"
  input: "gradients/conv-maxpool-3/conv_grad/Conv2DBackpropFilter"
  input: "^gradients/conv-maxpool-3/conv_grad/tuple/group_deps"
  attr {
    key: "T"
    value {
      type: DT_FLOAT
    }
  }
  attr {
    key: "_class"
    value {
      list {
        s: "loc:@gradients/conv-maxpool-3/conv_grad/Conv2DBackpropFilter"
      }
    }
  }
}
node {
  name: "gradients/conv-maxpool-4/conv_grad/Shape"
  op: "Shape"
  input: "embedding/ExpandDims"
  attr {
    key: "T"
    value {
      type: DT_FLOAT
    }
  }
}
node {
  name: "gradients/conv-maxpool-4/conv_grad/Conv2DBackpropInput"
  op: "Conv2DBackpropInput"
  input: "gradients/conv-maxpool-4/conv_grad/Shape"
  input: "conv-maxpool-4/W/read"
  input: "gradients/conv-maxpool-4/BiasAdd_grad/tuple/control_dependency"
  attr {
    key: "T"
    value {
      type: DT_FLOAT
    }
  }
  attr {
    key: "data_format"
    value {
      s: "NHWC"
    }
  }
  attr {
    key: "padding"
    value {
      s: "VALID"
    }
  }
  attr {
    key: "strides"
    value {
      list {
        i: 1
        i: 1
        i: 1
        i: 1
      }
    }
  }
  attr {
    key: "use_cudnn_on_gpu"
    value {
      b: true
    }
  }
}
node {
  name: "gradients/conv-maxpool-4/conv_grad/Shape_1"
  op: "Const"
  attr {
    key: "dtype"
    value {
      type: DT_INT32
    }
  }
  attr {
    key: "value"
    value {
      tensor {
        dtype: DT_INT32
        tensor_shape {
          dim {
            size: 4
          }
        }
        tensor_content: "\004\000\000\000,\001\000\000\001\000\000\000\200\000\000\000"
      }
    }
  }
}
node {
  name: "gradients/conv-maxpool-4/conv_grad/Conv2DBackpropFilter"
  op: "Conv2DBackpropFilter"
  input: "embedding/ExpandDims"
  input: "gradients/conv-maxpool-4/conv_grad/Shape_1"
  input: "gradients/conv-maxpool-4/BiasAdd_grad/tuple/control_dependency"
  attr {
    key: "T"
    value {
      type: DT_FLOAT
    }
  }
  attr {
    key: "data_format"
    value {
      s: "NHWC"
    }
  }
  attr {
    key: "padding"
    value {
      s: "VALID"
    }
  }
  attr {
    key: "strides"
    value {
      list {
        i: 1
        i: 1
        i: 1
        i: 1
      }
    }
  }
  attr {
    key: "use_cudnn_on_gpu"
    value {
      b: true
    }
  }
}
node {
  name: "gradients/conv-maxpool-4/conv_grad/tuple/group_deps"
  op: "NoOp"
  input: "^gradients/conv-maxpool-4/conv_grad/Conv2DBackpropInput"
  input: "^gradients/conv-maxpool-4/conv_grad/Conv2DBackpropFilter"
}
node {
  name: "gradients/conv-maxpool-4/conv_grad/tuple/control_dependency"
  op: "Identity"
  input: "gradients/conv-maxpool-4/conv_grad/Conv2DBackpropInput"
  input: "^gradients/conv-maxpool-4/conv_grad/tuple/group_deps"
  attr {
    key: "T"
    value {
      type: DT_FLOAT
    }
  }
  attr {
    key: "_class"
    value {
      list {
        s: "loc:@gradients/conv-maxpool-4/conv_grad/Conv2DBackpropInput"
      }
    }
  }
}
node {
  name: "gradients/conv-maxpool-4/conv_grad/tuple/control_dependency_1"
  op: "Identity"
  input: "gradients/conv-maxpool-4/conv_grad/Conv2DBackpropFilter"
  input: "^gradients/conv-maxpool-4/conv_grad/tuple/group_deps"
  attr {
    key: "T"
    value {
      type: DT_FLOAT
    }
  }
  attr {
    key: "_class"
    value {
      list {
        s: "loc:@gradients/conv-maxpool-4/conv_grad/Conv2DBackpropFilter"
      }
    }
  }
}
node {
  name: "beta1_power/initial_value"
  op: "Const"
  attr {
    key: "_class"
    value {
      list {
        s: "loc:@conv-maxpool-2/W"
      }
    }
  }
  attr {
    key: "dtype"
    value {
      type: DT_FLOAT
    }
  }
  attr {
    key: "value"
    value {
      tensor {
        dtype: DT_FLOAT
        tensor_shape {
        }
        float_val: 0.899999976158
      }
    }
  }
}
node {
  name: "beta1_power"
  op: "Variable"
  attr {
    key: "_class"
    value {
      list {
        s: "loc:@conv-maxpool-2/W"
      }
    }
  }
  attr {
    key: "container"
    value {
      s: ""
    }
  }
  attr {
    key: "dtype"
    value {
      type: DT_FLOAT
    }
  }
  attr {
    key: "shape"
    value {
      shape {
      }
    }
  }
  attr {
    key: "shared_name"
    value {
      s: ""
    }
  }
}
node {
  name: "beta1_power/Assign"
  op: "Assign"
  input: "beta1_power"
  input: "beta1_power/initial_value"
  attr {
    key: "T"
    value {
      type: DT_FLOAT
    }
  }
  attr {
    key: "_class"
    value {
      list {
        s: "loc:@conv-maxpool-2/W"
      }
    }
  }
  attr {
    key: "use_locking"
    value {
      b: true
    }
  }
  attr {
    key: "validate_shape"
    value {
      b: true
    }
  }
}
node {
  name: "beta1_power/read"
  op: "Identity"
  input: "beta1_power"
  attr {
    key: "T"
    value {
      type: DT_FLOAT
    }
  }
  attr {
    key: "_class"
    value {
      list {
        s: "loc:@conv-maxpool-2/W"
      }
    }
  }
}
node {
  name: "beta2_power/initial_value"
  op: "Const"
  attr {
    key: "_class"
    value {
      list {
        s: "loc:@conv-maxpool-2/W"
      }
    }
  }
  attr {
    key: "dtype"
    value {
      type: DT_FLOAT
    }
  }
  attr {
    key: "value"
    value {
      tensor {
        dtype: DT_FLOAT
        tensor_shape {
        }
        float_val: 0.999000012875
      }
    }
  }
}
node {
  name: "beta2_power"
  op: "Variable"
  attr {
    key: "_class"
    value {
      list {
        s: "loc:@conv-maxpool-2/W"
      }
    }
  }
  attr {
    key: "container"
    value {
      s: ""
    }
  }
  attr {
    key: "dtype"
    value {
      type: DT_FLOAT
    }
  }
  attr {
    key: "shape"
    value {
      shape {
      }
    }
  }
  attr {
    key: "shared_name"
    value {
      s: ""
    }
  }
}
node {
  name: "beta2_power/Assign"
  op: "Assign"
  input: "beta2_power"
  input: "beta2_power/initial_value"
  attr {
    key: "T"
    value {
      type: DT_FLOAT
    }
  }
  attr {
    key: "_class"
    value {
      list {
        s: "loc:@conv-maxpool-2/W"
      }
    }
  }
  attr {
    key: "use_locking"
    value {
      b: true
    }
  }
  attr {
    key: "validate_shape"
    value {
      b: true
    }
  }
}
node {
  name: "beta2_power/read"
  op: "Identity"
  input: "beta2_power"
  attr {
    key: "T"
    value {
      type: DT_FLOAT
    }
  }
  attr {
    key: "_class"
    value {
      list {
        s: "loc:@conv-maxpool-2/W"
      }
    }
  }
}
node {
  name: "zeros"
  op: "Const"
  attr {
    key: "dtype"
    value {
      type: DT_FLOAT
    }
  }
  attr {
    key: "value"
    value {
      tensor {
        dtype: DT_FLOAT
        tensor_shape {
          dim {
            size: 2
          }
          dim {
            size: 300
          }
          dim {
            size: 1
          }
          dim {
            size: 128
          }
        }
        float_val: 0.0
      }
    }
  }
}
node {
  name: "conv-maxpool-2/W/Adam"
  op: "Variable"
  attr {
    key: "_class"
    value {
      list {
        s: "loc:@conv-maxpool-2/W"
      }
    }
  }
  attr {
    key: "container"
    value {
      s: ""
    }
  }
  attr {
    key: "dtype"
    value {
      type: DT_FLOAT
    }
  }
  attr {
    key: "shape"
    value {
      shape {
        dim {
          size: 2
        }
        dim {
          size: 300
        }
        dim {
          size: 1
        }
        dim {
          size: 128
        }
      }
    }
  }
  attr {
    key: "shared_name"
    value {
      s: ""
    }
  }
}
node {
  name: "conv-maxpool-2/W/Adam/Assign"
  op: "Assign"
  input: "conv-maxpool-2/W/Adam"
  input: "zeros"
  attr {
    key: "T"
    value {
      type: DT_FLOAT
    }
  }
  attr {
    key: "_class"
    value {
      list {
        s: "loc:@conv-maxpool-2/W"
      }
    }
  }
  attr {
    key: "use_locking"
    value {
      b: true
    }
  }
  attr {
    key: "validate_shape"
    value {
      b: true
    }
  }
}
node {
  name: "conv-maxpool-2/W/Adam/read"
  op: "Identity"
  input: "conv-maxpool-2/W/Adam"
  attr {
    key: "T"
    value {
      type: DT_FLOAT
    }
  }
  attr {
    key: "_class"
    value {
      list {
        s: "loc:@conv-maxpool-2/W"
      }
    }
  }
}
node {
  name: "zeros_1"
  op: "Const"
  attr {
    key: "dtype"
    value {
      type: DT_FLOAT
    }
  }
  attr {
    key: "value"
    value {
      tensor {
        dtype: DT_FLOAT
        tensor_shape {
          dim {
            size: 2
          }
          dim {
            size: 300
          }
          dim {
            size: 1
          }
          dim {
            size: 128
          }
        }
        float_val: 0.0
      }
    }
  }
}
node {
  name: "conv-maxpool-2/W/Adam_1"
  op: "Variable"
  attr {
    key: "_class"
    value {
      list {
        s: "loc:@conv-maxpool-2/W"
      }
    }
  }
  attr {
    key: "container"
    value {
      s: ""
    }
  }
  attr {
    key: "dtype"
    value {
      type: DT_FLOAT
    }
  }
  attr {
    key: "shape"
    value {
      shape {
        dim {
          size: 2
        }
        dim {
          size: 300
        }
        dim {
          size: 1
        }
        dim {
          size: 128
        }
      }
    }
  }
  attr {
    key: "shared_name"
    value {
      s: ""
    }
  }
}
node {
  name: "conv-maxpool-2/W/Adam_1/Assign"
  op: "Assign"
  input: "conv-maxpool-2/W/Adam_1"
  input: "zeros_1"
  attr {
    key: "T"
    value {
      type: DT_FLOAT
    }
  }
  attr {
    key: "_class"
    value {
      list {
        s: "loc:@conv-maxpool-2/W"
      }
    }
  }
  attr {
    key: "use_locking"
    value {
      b: true
    }
  }
  attr {
    key: "validate_shape"
    value {
      b: true
    }
  }
}
node {
  name: "conv-maxpool-2/W/Adam_1/read"
  op: "Identity"
  input: "conv-maxpool-2/W/Adam_1"
  attr {
    key: "T"
    value {
      type: DT_FLOAT
    }
  }
  attr {
    key: "_class"
    value {
      list {
        s: "loc:@conv-maxpool-2/W"
      }
    }
  }
}
node {
  name: "zeros_2"
  op: "Const"
  attr {
    key: "dtype"
    value {
      type: DT_FLOAT
    }
  }
  attr {
    key: "value"
    value {
      tensor {
        dtype: DT_FLOAT
        tensor_shape {
          dim {
            size: 128
          }
        }
        float_val: 0.0
      }
    }
  }
}
node {
  name: "conv-maxpool-2/b/Adam"
  op: "Variable"
  attr {
    key: "_class"
    value {
      list {
        s: "loc:@conv-maxpool-2/b"
      }
    }
  }
  attr {
    key: "container"
    value {
      s: ""
    }
  }
  attr {
    key: "dtype"
    value {
      type: DT_FLOAT
    }
  }
  attr {
    key: "shape"
    value {
      shape {
        dim {
          size: 128
        }
      }
    }
  }
  attr {
    key: "shared_name"
    value {
      s: ""
    }
  }
}
node {
  name: "conv-maxpool-2/b/Adam/Assign"
  op: "Assign"
  input: "conv-maxpool-2/b/Adam"
  input: "zeros_2"
  attr {
    key: "T"
    value {
      type: DT_FLOAT
    }
  }
  attr {
    key: "_class"
    value {
      list {
        s: "loc:@conv-maxpool-2/b"
      }
    }
  }
  attr {
    key: "use_locking"
    value {
      b: true
    }
  }
  attr {
    key: "validate_shape"
    value {
      b: true
    }
  }
}
node {
  name: "conv-maxpool-2/b/Adam/read"
  op: "Identity"
  input: "conv-maxpool-2/b/Adam"
  attr {
    key: "T"
    value {
      type: DT_FLOAT
    }
  }
  attr {
    key: "_class"
    value {
      list {
        s: "loc:@conv-maxpool-2/b"
      }
    }
  }
}
node {
  name: "zeros_3"
  op: "Const"
  attr {
    key: "dtype"
    value {
      type: DT_FLOAT
    }
  }
  attr {
    key: "value"
    value {
      tensor {
        dtype: DT_FLOAT
        tensor_shape {
          dim {
            size: 128
          }
        }
        float_val: 0.0
      }
    }
  }
}
node {
  name: "conv-maxpool-2/b/Adam_1"
  op: "Variable"
  attr {
    key: "_class"
    value {
      list {
        s: "loc:@conv-maxpool-2/b"
      }
    }
  }
  attr {
    key: "container"
    value {
      s: ""
    }
  }
  attr {
    key: "dtype"
    value {
      type: DT_FLOAT
    }
  }
  attr {
    key: "shape"
    value {
      shape {
        dim {
          size: 128
        }
      }
    }
  }
  attr {
    key: "shared_name"
    value {
      s: ""
    }
  }
}
node {
  name: "conv-maxpool-2/b/Adam_1/Assign"
  op: "Assign"
  input: "conv-maxpool-2/b/Adam_1"
  input: "zeros_3"
  attr {
    key: "T"
    value {
      type: DT_FLOAT
    }
  }
  attr {
    key: "_class"
    value {
      list {
        s: "loc:@conv-maxpool-2/b"
      }
    }
  }
  attr {
    key: "use_locking"
    value {
      b: true
    }
  }
  attr {
    key: "validate_shape"
    value {
      b: true
    }
  }
}
node {
  name: "conv-maxpool-2/b/Adam_1/read"
  op: "Identity"
  input: "conv-maxpool-2/b/Adam_1"
  attr {
    key: "T"
    value {
      type: DT_FLOAT
    }
  }
  attr {
    key: "_class"
    value {
      list {
        s: "loc:@conv-maxpool-2/b"
      }
    }
  }
}
node {
  name: "zeros_4"
  op: "Const"
  attr {
    key: "dtype"
    value {
      type: DT_FLOAT
    }
  }
  attr {
    key: "value"
    value {
      tensor {
        dtype: DT_FLOAT
        tensor_shape {
          dim {
            size: 3
          }
          dim {
            size: 300
          }
          dim {
            size: 1
          }
          dim {
            size: 128
          }
        }
        float_val: 0.0
      }
    }
  }
}
node {
  name: "conv-maxpool-3/W/Adam"
  op: "Variable"
  attr {
    key: "_class"
    value {
      list {
        s: "loc:@conv-maxpool-3/W"
      }
    }
  }
  attr {
    key: "container"
    value {
      s: ""
    }
  }
  attr {
    key: "dtype"
    value {
      type: DT_FLOAT
    }
  }
  attr {
    key: "shape"
    value {
      shape {
        dim {
          size: 3
        }
        dim {
          size: 300
        }
        dim {
          size: 1
        }
        dim {
          size: 128
        }
      }
    }
  }
  attr {
    key: "shared_name"
    value {
      s: ""
    }
  }
}
node {
  name: "conv-maxpool-3/W/Adam/Assign"
  op: "Assign"
  input: "conv-maxpool-3/W/Adam"
  input: "zeros_4"
  attr {
    key: "T"
    value {
      type: DT_FLOAT
    }
  }
  attr {
    key: "_class"
    value {
      list {
        s: "loc:@conv-maxpool-3/W"
      }
    }
  }
  attr {
    key: "use_locking"
    value {
      b: true
    }
  }
  attr {
    key: "validate_shape"
    value {
      b: true
    }
  }
}
node {
  name: "conv-maxpool-3/W/Adam/read"
  op: "Identity"
  input: "conv-maxpool-3/W/Adam"
  attr {
    key: "T"
    value {
      type: DT_FLOAT
    }
  }
  attr {
    key: "_class"
    value {
      list {
        s: "loc:@conv-maxpool-3/W"
      }
    }
  }
}
node {
  name: "zeros_5"
  op: "Const"
  attr {
    key: "dtype"
    value {
      type: DT_FLOAT
    }
  }
  attr {
    key: "value"
    value {
      tensor {
        dtype: DT_FLOAT
        tensor_shape {
          dim {
            size: 3
          }
          dim {
            size: 300
          }
          dim {
            size: 1
          }
          dim {
            size: 128
          }
        }
        float_val: 0.0
      }
    }
  }
}
node {
  name: "conv-maxpool-3/W/Adam_1"
  op: "Variable"
  attr {
    key: "_class"
    value {
      list {
        s: "loc:@conv-maxpool-3/W"
      }
    }
  }
  attr {
    key: "container"
    value {
      s: ""
    }
  }
  attr {
    key: "dtype"
    value {
      type: DT_FLOAT
    }
  }
  attr {
    key: "shape"
    value {
      shape {
        dim {
          size: 3
        }
        dim {
          size: 300
        }
        dim {
          size: 1
        }
        dim {
          size: 128
        }
      }
    }
  }
  attr {
    key: "shared_name"
    value {
      s: ""
    }
  }
}
node {
  name: "conv-maxpool-3/W/Adam_1/Assign"
  op: "Assign"
  input: "conv-maxpool-3/W/Adam_1"
  input: "zeros_5"
  attr {
    key: "T"
    value {
      type: DT_FLOAT
    }
  }
  attr {
    key: "_class"
    value {
      list {
        s: "loc:@conv-maxpool-3/W"
      }
    }
  }
  attr {
    key: "use_locking"
    value {
      b: true
    }
  }
  attr {
    key: "validate_shape"
    value {
      b: true
    }
  }
}
node {
  name: "conv-maxpool-3/W/Adam_1/read"
  op: "Identity"
  input: "conv-maxpool-3/W/Adam_1"
  attr {
    key: "T"
    value {
      type: DT_FLOAT
    }
  }
  attr {
    key: "_class"
    value {
      list {
        s: "loc:@conv-maxpool-3/W"
      }
    }
  }
}
node {
  name: "zeros_6"
  op: "Const"
  attr {
    key: "dtype"
    value {
      type: DT_FLOAT
    }
  }
  attr {
    key: "value"
    value {
      tensor {
        dtype: DT_FLOAT
        tensor_shape {
          dim {
            size: 128
          }
        }
        float_val: 0.0
      }
    }
  }
}
node {
  name: "conv-maxpool-3/b/Adam"
  op: "Variable"
  attr {
    key: "_class"
    value {
      list {
        s: "loc:@conv-maxpool-3/b"
      }
    }
  }
  attr {
    key: "container"
    value {
      s: ""
    }
  }
  attr {
    key: "dtype"
    value {
      type: DT_FLOAT
    }
  }
  attr {
    key: "shape"
    value {
      shape {
        dim {
          size: 128
        }
      }
    }
  }
  attr {
    key: "shared_name"
    value {
      s: ""
    }
  }
}
node {
  name: "conv-maxpool-3/b/Adam/Assign"
  op: "Assign"
  input: "conv-maxpool-3/b/Adam"
  input: "zeros_6"
  attr {
    key: "T"
    value {
      type: DT_FLOAT
    }
  }
  attr {
    key: "_class"
    value {
      list {
        s: "loc:@conv-maxpool-3/b"
      }
    }
  }
  attr {
    key: "use_locking"
    value {
      b: true
    }
  }
  attr {
    key: "validate_shape"
    value {
      b: true
    }
  }
}
node {
  name: "conv-maxpool-3/b/Adam/read"
  op: "Identity"
  input: "conv-maxpool-3/b/Adam"
  attr {
    key: "T"
    value {
      type: DT_FLOAT
    }
  }
  attr {
    key: "_class"
    value {
      list {
        s: "loc:@conv-maxpool-3/b"
      }
    }
  }
}
node {
  name: "zeros_7"
  op: "Const"
  attr {
    key: "dtype"
    value {
      type: DT_FLOAT
    }
  }
  attr {
    key: "value"
    value {
      tensor {
        dtype: DT_FLOAT
        tensor_shape {
          dim {
            size: 128
          }
        }
        float_val: 0.0
      }
    }
  }
}
node {
  name: "conv-maxpool-3/b/Adam_1"
  op: "Variable"
  attr {
    key: "_class"
    value {
      list {
        s: "loc:@conv-maxpool-3/b"
      }
    }
  }
  attr {
    key: "container"
    value {
      s: ""
    }
  }
  attr {
    key: "dtype"
    value {
      type: DT_FLOAT
    }
  }
  attr {
    key: "shape"
    value {
      shape {
        dim {
          size: 128
        }
      }
    }
  }
  attr {
    key: "shared_name"
    value {
      s: ""
    }
  }
}
node {
  name: "conv-maxpool-3/b/Adam_1/Assign"
  op: "Assign"
  input: "conv-maxpool-3/b/Adam_1"
  input: "zeros_7"
  attr {
    key: "T"
    value {
      type: DT_FLOAT
    }
  }
  attr {
    key: "_class"
    value {
      list {
        s: "loc:@conv-maxpool-3/b"
      }
    }
  }
  attr {
    key: "use_locking"
    value {
      b: true
    }
  }
  attr {
    key: "validate_shape"
    value {
      b: true
    }
  }
}
node {
  name: "conv-maxpool-3/b/Adam_1/read"
  op: "Identity"
  input: "conv-maxpool-3/b/Adam_1"
  attr {
    key: "T"
    value {
      type: DT_FLOAT
    }
  }
  attr {
    key: "_class"
    value {
      list {
        s: "loc:@conv-maxpool-3/b"
      }
    }
  }
}
node {
  name: "zeros_8"
  op: "Const"
  attr {
    key: "dtype"
    value {
      type: DT_FLOAT
    }
  }
  attr {
    key: "value"
    value {
      tensor {
        dtype: DT_FLOAT
        tensor_shape {
          dim {
            size: 4
          }
          dim {
            size: 300
          }
          dim {
            size: 1
          }
          dim {
            size: 128
          }
        }
        float_val: 0.0
      }
    }
  }
}
node {
  name: "conv-maxpool-4/W/Adam"
  op: "Variable"
  attr {
    key: "_class"
    value {
      list {
        s: "loc:@conv-maxpool-4/W"
      }
    }
  }
  attr {
    key: "container"
    value {
      s: ""
    }
  }
  attr {
    key: "dtype"
    value {
      type: DT_FLOAT
    }
  }
  attr {
    key: "shape"
    value {
      shape {
        dim {
          size: 4
        }
        dim {
          size: 300
        }
        dim {
          size: 1
        }
        dim {
          size: 128
        }
      }
    }
  }
  attr {
    key: "shared_name"
    value {
      s: ""
    }
  }
}
node {
  name: "conv-maxpool-4/W/Adam/Assign"
  op: "Assign"
  input: "conv-maxpool-4/W/Adam"
  input: "zeros_8"
  attr {
    key: "T"
    value {
      type: DT_FLOAT
    }
  }
  attr {
    key: "_class"
    value {
      list {
        s: "loc:@conv-maxpool-4/W"
      }
    }
  }
  attr {
    key: "use_locking"
    value {
      b: true
    }
  }
  attr {
    key: "validate_shape"
    value {
      b: true
    }
  }
}
node {
  name: "conv-maxpool-4/W/Adam/read"
  op: "Identity"
  input: "conv-maxpool-4/W/Adam"
  attr {
    key: "T"
    value {
      type: DT_FLOAT
    }
  }
  attr {
    key: "_class"
    value {
      list {
        s: "loc:@conv-maxpool-4/W"
      }
    }
  }
}
node {
  name: "zeros_9"
  op: "Const"
  attr {
    key: "dtype"
    value {
      type: DT_FLOAT
    }
  }
  attr {
    key: "value"
    value {
      tensor {
        dtype: DT_FLOAT
        tensor_shape {
          dim {
            size: 4
          }
          dim {
            size: 300
          }
          dim {
            size: 1
          }
          dim {
            size: 128
          }
        }
        float_val: 0.0
      }
    }
  }
}
node {
  name: "conv-maxpool-4/W/Adam_1"
  op: "Variable"
  attr {
    key: "_class"
    value {
      list {
        s: "loc:@conv-maxpool-4/W"
      }
    }
  }
  attr {
    key: "container"
    value {
      s: ""
    }
  }
  attr {
    key: "dtype"
    value {
      type: DT_FLOAT
    }
  }
  attr {
    key: "shape"
    value {
      shape {
        dim {
          size: 4
        }
        dim {
          size: 300
        }
        dim {
          size: 1
        }
        dim {
          size: 128
        }
      }
    }
  }
  attr {
    key: "shared_name"
    value {
      s: ""
    }
  }
}
node {
  name: "conv-maxpool-4/W/Adam_1/Assign"
  op: "Assign"
  input: "conv-maxpool-4/W/Adam_1"
  input: "zeros_9"
  attr {
    key: "T"
    value {
      type: DT_FLOAT
    }
  }
  attr {
    key: "_class"
    value {
      list {
        s: "loc:@conv-maxpool-4/W"
      }
    }
  }
  attr {
    key: "use_locking"
    value {
      b: true
    }
  }
  attr {
    key: "validate_shape"
    value {
      b: true
    }
  }
}
node {
  name: "conv-maxpool-4/W/Adam_1/read"
  op: "Identity"
  input: "conv-maxpool-4/W/Adam_1"
  attr {
    key: "T"
    value {
      type: DT_FLOAT
    }
  }
  attr {
    key: "_class"
    value {
      list {
        s: "loc:@conv-maxpool-4/W"
      }
    }
  }
}
node {
  name: "zeros_10"
  op: "Const"
  attr {
    key: "dtype"
    value {
      type: DT_FLOAT
    }
  }
  attr {
    key: "value"
    value {
      tensor {
        dtype: DT_FLOAT
        tensor_shape {
          dim {
            size: 128
          }
        }
        float_val: 0.0
      }
    }
  }
}
node {
  name: "conv-maxpool-4/b/Adam"
  op: "Variable"
  attr {
    key: "_class"
    value {
      list {
        s: "loc:@conv-maxpool-4/b"
      }
    }
  }
  attr {
    key: "container"
    value {
      s: ""
    }
  }
  attr {
    key: "dtype"
    value {
      type: DT_FLOAT
    }
  }
  attr {
    key: "shape"
    value {
      shape {
        dim {
          size: 128
        }
      }
    }
  }
  attr {
    key: "shared_name"
    value {
      s: ""
    }
  }
}
node {
  name: "conv-maxpool-4/b/Adam/Assign"
  op: "Assign"
  input: "conv-maxpool-4/b/Adam"
  input: "zeros_10"
  attr {
    key: "T"
    value {
      type: DT_FLOAT
    }
  }
  attr {
    key: "_class"
    value {
      list {
        s: "loc:@conv-maxpool-4/b"
      }
    }
  }
  attr {
    key: "use_locking"
    value {
      b: true
    }
  }
  attr {
    key: "validate_shape"
    value {
      b: true
    }
  }
}
node {
  name: "conv-maxpool-4/b/Adam/read"
  op: "Identity"
  input: "conv-maxpool-4/b/Adam"
  attr {
    key: "T"
    value {
      type: DT_FLOAT
    }
  }
  attr {
    key: "_class"
    value {
      list {
        s: "loc:@conv-maxpool-4/b"
      }
    }
  }
}
node {
  name: "zeros_11"
  op: "Const"
  attr {
    key: "dtype"
    value {
      type: DT_FLOAT
    }
  }
  attr {
    key: "value"
    value {
      tensor {
        dtype: DT_FLOAT
        tensor_shape {
          dim {
            size: 128
          }
        }
        float_val: 0.0
      }
    }
  }
}
node {
  name: "conv-maxpool-4/b/Adam_1"
  op: "Variable"
  attr {
    key: "_class"
    value {
      list {
        s: "loc:@conv-maxpool-4/b"
      }
    }
  }
  attr {
    key: "container"
    value {
      s: ""
    }
  }
  attr {
    key: "dtype"
    value {
      type: DT_FLOAT
    }
  }
  attr {
    key: "shape"
    value {
      shape {
        dim {
          size: 128
        }
      }
    }
  }
  attr {
    key: "shared_name"
    value {
      s: ""
    }
  }
}
node {
  name: "conv-maxpool-4/b/Adam_1/Assign"
  op: "Assign"
  input: "conv-maxpool-4/b/Adam_1"
  input: "zeros_11"
  attr {
    key: "T"
    value {
      type: DT_FLOAT
    }
  }
  attr {
    key: "_class"
    value {
      list {
        s: "loc:@conv-maxpool-4/b"
      }
    }
  }
  attr {
    key: "use_locking"
    value {
      b: true
    }
  }
  attr {
    key: "validate_shape"
    value {
      b: true
    }
  }
}
node {
  name: "conv-maxpool-4/b/Adam_1/read"
  op: "Identity"
  input: "conv-maxpool-4/b/Adam_1"
  attr {
    key: "T"
    value {
      type: DT_FLOAT
    }
  }
  attr {
    key: "_class"
    value {
      list {
        s: "loc:@conv-maxpool-4/b"
      }
    }
  }
}
node {
  name: "zeros_12"
  op: "Const"
  attr {
    key: "dtype"
    value {
      type: DT_FLOAT
    }
  }
  attr {
    key: "value"
    value {
      tensor {
        dtype: DT_FLOAT
        tensor_shape {
          dim {
            size: 384
          }
          dim {
            size: 50
          }
        }
        float_val: 0.0
      }
    }
  }
}
node {
  name: "W0/Adam"
  op: "Variable"
  attr {
    key: "_class"
    value {
…
    key: "validate_shape"
    value {
      b: true
    }
  }
}
node {
  name: "save/restore_slice_11/tensor_name"
  op: "Const"
  attr {
    key: "dtype"
    value {
      type: DT_STRING
    }
  }
  attr {
    key: "value"
    value {
      tensor {
        dtype: DT_STRING
        tensor_shape {
        }
        string_val: "W21/Adam_1"
      }
    }
  }
}
node {
  name: "save/restore_slice_11/shape_and_slice"
  op: "Const"
  attr {
    key: "dtype"
    value {
      type: DT_STRING
    }
  }
  attr {
    key: "value"
    value {
      tensor {
        dtype: DT_STRING
        tensor_shape {
        }
        string_val: ""
      }
    }
  }
}
node {
  name: "save/restore_slice_11"
  op: "RestoreSlice"
  input: "save/Const"
  input: "save/restore_slice_11/tensor_name"
  input: "save/restore_slice_11/shape_and_slice"
  attr {
    key: "dt"
    value {
      type: DT_FLOAT
    }
  }
  attr {
    key: "preferred_shard"
    value {
      i: -1
    }
  }
}
node {
  name: "save/Assign_11"
  op: "Assign"
  input: "W21/Adam_1"
  input: "save/restore_slice_11"
  attr {
    key: "T"
    value {
      type: DT_FLOAT
    }
  }
  attr {
    key: "_class"
    value {
      list {
        s: "loc:@W21"
      }
    }
  }
  attr {
    key: "use_locking"
    value {
      b: true
    }
  }
  attr {
    key: "validate_shape"
    value {
      b: true
    }
  }
}
node {
  name: "save/restore_slice_12/tensor_name"
  op: "Const"
  attr {
    key: "dtype"
    value {
      type: DT_STRING
    }
  }
  attr {
    key: "value"
    value {
      tensor {
        dtype: DT_STRING
        tensor_shape {
        }
        string_val: "beta1_power"
      }
    }
  }
}
node {
  name: "save/restore_slice_12/shape_and_slice"
  op: "Const"
  attr {
    key: "dtype"
    value {
      type: DT_STRING
    }
  }
  attr {
    key: "value"
    value {
      tensor {
        dtype: DT_STRING
        tensor_shape {
        }
        string_val: ""
      }
    }
  }
}
node {
  name: "save/restore_slice_12"
  op: "RestoreSlice"
  input: "save/Const"
  input: "save/restore_slice_12/tensor_name"
  input: "save/restore_slice_12/shape_and_slice"
  attr {
    key: "dt"
    value {
      type: DT_FLOAT
    }
  }
  attr {
    key: "preferred_shard"
    value {
      i: -1
    }
  }
}
node {
  name: "save/Assign_12"
  op: "Assign"
  input: "beta1_power"
  input: "save/restore_slice_12"
  attr {
    key: "T"
    value {
      type: DT_FLOAT
    }
  }
  attr {
    key: "_class"
    value {
      list {
        s: "loc:@conv-maxpool-2/W"
      }
    }
  }
  attr {
    key: "use_locking"
    value {
      b: true
    }
  }
  attr {
    key: "validate_shape"
    value {
      b: true
    }
  }
}
node {
  name: "save/restore_slice_13/tensor_name"
  op: "Const"
  attr {
    key: "dtype"
    value {
      type: DT_STRING
    }
  }
  attr {
    key: "value"
    value {
      tensor {
        dtype: DT_STRING
        tensor_shape {
        }
        string_val: "beta2_power"
      }
    }
  }
}
node {
  name: "save/restore_slice_13/shape_and_slice"
  op: "Const"
  attr {
    key: "dtype"
    value {
      type: DT_STRING
    }
  }
  attr {
    key: "value"
    value {
      tensor {
        dtype: DT_STRING
        tensor_shape {
        }
        string_val: ""
      }
    }
  }
}
node {
  name: "save/restore_slice_13"
  op: "RestoreSlice"
  input: "save/Const"
  input: "save/restore_slice_13/tensor_name"
  input: "save/restore_slice_13/shape_and_slice"
  attr {
    key: "dt"
    value {
      type: DT_FLOAT
    }
  }
  attr {
    key: "preferred_shard"
    value {
      i: -1
    }
  }
}
node {
  name: "save/Assign_13"
  op: "Assign"
  input: "beta2_power"
  input: "save/restore_slice_13"
  attr {
    key: "T"
    value {
      type: DT_FLOAT
    }
  }
  attr {
    key: "_class"
    value {
      list {
        s: "loc:@conv-maxpool-2/W"
      }
    }
  }
  attr {
    key: "use_locking"
    value {
      b: true
    }
  }
  attr {
    key: "validate_shape"
    value {
      b: true
    }
  }
}
node {
  name: "save/restore_slice_14/tensor_name"
  op: "Const"
  attr {
    key: "dtype"
    value {
      type: DT_STRING
    }
  }
  attr {
    key: "value"
    value {
      tensor {
        dtype: DT_STRING
        tensor_shape {
        }
        string_val: "conv-maxpool-2/W"
      }
    }
  }
}
node {
  name: "save/restore_slice_14/shape_and_slice"
  op: "Const"
  attr {
    key: "dtype"
    value {
      type: DT_STRING
    }
  }
  attr {
    key: "value"
    value {
      tensor {
        dtype: DT_STRING
        tensor_shape {
        }
        string_val: ""
      }
    }
  }
}
node {
  name: "save/restore_slice_14"
  op: "RestoreSlice"
  input: "save/Const"
  input: "save/restore_slice_14/tensor_name"
  input: "save/restore_slice_14/shape_and_slice"
  attr {
    key: "dt"
    value {
      type: DT_FLOAT
    }
  }
  attr {
    key: "preferred_shard"
    value {
      i: -1
    }
  }
}
node {
  name: "save/Assign_14"
  op: "Assign"
  input: "conv-maxpool-2/W"
  input: "save/restore_slice_14"
  attr {
    key: "T"
    value {
      type: DT_FLOAT
    }
  }
  attr {
    key: "_class"
    value {
      list {
        s: "loc:@conv-maxpool-2/W"
      }
    }
  }
  attr {
    key: "use_locking"
    value {
      b: true
    }
  }
  attr {
    key: "validate_shape"
    value {
      b: true
    }
  }
}
node {
  name: "save/restore_slice_15/tensor_name"
  op: "Const"
  attr {
    key: "dtype"
    value {
      type: DT_STRING
    }
  }
  attr {
    key: "value"
    value {
      tensor {
        dtype: DT_STRING
        tensor_shape {
        }
        string_val: "conv-maxpool-2/W/Adam"
      }
    }
  }
}
node {
  name: "save/restore_slice_15/shape_and_slice"
  op: "Const"
  attr {
    key: "dtype"
    value {
      type: DT_STRING
    }
  }
  attr {
    key: "value"
    value {
      tensor {
        dtype: DT_STRING
        tensor_shape {
        }
        string_val: ""
      }
    }
  }
}
node {
  name: "save/restore_slice_15"
  op: "RestoreSlice"
  input: "save/Const"
  input: "save/restore_slice_15/tensor_name"
  input: "save/restore_slice_15/shape_and_slice"
  attr {
    key: "dt"
    value {
      type: DT_FLOAT
    }
  }
  attr {
    key: "preferred_shard"
    value {
      i: -1
    }
  }
}
node {
  name: "save/Assign_15"
  op: "Assign"
  input: "conv-maxpool-2/W/Adam"
  input: "save/restore_slice_15"
  attr {
    key: "T"
    value {
      type: DT_FLOAT
    }
  }
  attr {
    key: "_class"
    value {
      list {
        s: "loc:@conv-maxpool-2/W"
      }
    }
  }
  attr {
    key: "use_locking"
    value {
      b: true
    }
  }
  attr {
    key: "validate_shape"
    value {
      b: true
    }
  }
}
node {
  name: "save/restore_slice_16/tensor_name"
  op: "Const"
  attr {
    key: "dtype"
    value {
      type: DT_STRING
    }
  }
  attr {
    key: "value"
    value {
      tensor {
        dtype: DT_STRING
        tensor_shape {
        }
        string_val: "conv-maxpool-2/W/Adam_1"
      }
    }
  }
}
node {
  name: "save/restore_slice_16/shape_and_slice"
  op: "Const"
  attr {
    key: "dtype"
    value {
      type: DT_STRING
    }
  }
  attr {
    key: "value"
    value {
      tensor {
        dtype: DT_STRING
        tensor_shape {
        }
        string_val: ""
      }
    }
  }
}
node {
  name: "save/restore_slice_16"
  op: "RestoreSlice"
  input: "save/Const"
  input: "save/restore_slice_16/tensor_name"
  input: "save/restore_slice_16/shape_and_slice"
  attr {
    key: "dt"
    value {
      type: DT_FLOAT
    }
  }
  attr {
    key: "preferred_shard"
    value {
      i: -1
    }
  }
}
node {
  name: "save/Assign_16"
  op: "Assign"
  input: "conv-maxpool-2/W/Adam_1"
  input: "save/restore_slice_16"
  attr {
    key: "T"
    value {
      type: DT_FLOAT
    }
  }
  attr {
    key: "_class"
    value {
      list {
        s: "loc:@conv-maxpool-2/W"
      }
    }
  }
  attr {
    key: "use_locking"
    value {
      b: true
    }
  }
  attr {
    key: "validate_shape"
    value {
      b: true
    }
  }
}
node {
  name: "save/restore_slice_17/tensor_name"
  op: "Const"
  attr {
    key: "dtype"
    value {
      type: DT_STRING
    }
  }
  attr {
    key: "value"
    value {
      tensor {
        dtype: DT_STRING
        tensor_shape {
        }
        string_val: "conv-maxpool-2/b"
      }
    }
  }
}
node {
  name: "save/restore_slice_17/shape_and_slice"
  op: "Const"
  attr {
    key: "dtype"
    value {
      type: DT_STRING
    }
  }
  attr {
    key: "value"
    value {
      tensor {
        dtype: DT_STRING
        tensor_shape {
        }
        string_val: ""
      }
    }
  }
}
node {
  name: "save/restore_slice_17"
  op: "RestoreSlice"
  input: "save/Const"
  input: "save/restore_slice_17/tensor_name"
  input: "save/restore_slice_17/shape_and_slice"
  attr {
    key: "dt"
    value {
      type: DT_FLOAT
    }
  }
  attr {
    key: "preferred_shard"
    value {
      i: -1
    }
  }
}
node {
  name: "save/Assign_17"
  op: "Assign"
  input: "conv-maxpool-2/b"
  input: "save/restore_slice_17"
  attr {
    key: "T"
    value {
      type: DT_FLOAT
    }
  }
  attr {
    key: "_class"
    value {
      list {
        s: "loc:@conv-maxpool-2/b"
      }
    }
  }
  attr {
    key: "use_locking"
    value {
      b: true
    }
  }
  attr {
    key: "validate_shape"
    value {
      b: true
    }
  }
}
node {
  name: "save/restore_slice_18/tensor_name"
  op: "Const"
  attr {
    key: "dtype"
    value {
      type: DT_STRING
    }
  }
  attr {
    key: "value"
    value {
      tensor {
        dtype: DT_STRING
        tensor_shape {
        }
        string_val: "conv-maxpool-2/b/Adam"
      }
    }
  }
}
node {
  name: "save/restore_slice_18/shape_and_slice"
  op: "Const"
  attr {
    key: "dtype"
    value {
      type: DT_STRING
    }
  }
  attr {
    key: "value"
    value {
      tensor {
        dtype: DT_STRING
        tensor_shape {
        }
        string_val: ""
      }
    }
  }
}
node {
  name: "save/restore_slice_18"
  op: "RestoreSlice"
  input: "save/Const"
  input: "save/restore_slice_18/tensor_name"
  input: "save/restore_slice_18/shape_and_slice"
  attr {
    key: "dt"
    value {
      type: DT_FLOAT
    }
  }
  attr {
    key: "preferred_shard"
    value {
      i: -1
    }
  }
}
node {
  name: "save/Assign_18"
  op: "Assign"
  input: "conv-maxpool-2/b/Adam"
  input: "save/restore_slice_18"
  attr {
    key: "T"
    value {
      type: DT_FLOAT
    }
  }
  attr {
    key: "_class"
    value {
      list {
        s: "loc:@conv-maxpool-2/b"
      }
    }
  }
  attr {
    key: "use_locking"
    value {
      b: true
    }
  }
  attr {
    key: "validate_shape"
    value {
      b: true
    }
  }
}
node {
  name: "save/restore_slice_19/tensor_name"
  op: "Const"
  attr {
    key: "dtype"
    value {
      type: DT_STRING
    }
  }
  attr {
    key: "value"
    value {
      tensor {
        dtype: DT_STRING
        tensor_shape {
        }
        string_val: "conv-maxpool-2/b/Adam_1"
      }
    }
  }
}
node {
  name: "save/restore_slice_19/shape_and_slice"
  op: "Const"
  attr {
    key: "dtype"
    value {
      type: DT_STRING
    }
  }
  attr {
    key: "value"
    value {
      tensor {
        dtype: DT_STRING
        tensor_shape {
        }
        string_val: ""
      }
    }
  }
}
node {
  name: "save/restore_slice_19"
  op: "RestoreSlice"
  input: "save/Const"
  input: "save/restore_slice_19/tensor_name"
  input: "save/restore_slice_19/shape_and_slice"
  attr {
    key: "dt"
    value {
      type: DT_FLOAT
    }
  }
  attr {
    key: "preferred_shard"
    value {
      i: -1
    }
  }
}
node {
  name: "save/Assign_19"
  op: "Assign"
  input: "conv-maxpool-2/b/Adam_1"
  input: "save/restore_slice_19"
  attr {
    key: "T"
    value {
      type: DT_FLOAT
    }
  }
  attr {
    key: "_class"
    value {
      list {
        s: "loc:@conv-maxpool-2/b"
      }
    }
  }
  attr {
    key: "use_locking"
    value {
      b: true
    }
  }
  attr {
    key: "validate_shape"
    value {
      b: true
    }
  }
}
node {
  name: "save/restore_slice_20/tensor_name"
  op: "Const"
  attr {
    key: "dtype"
    value {
      type: DT_STRING
    }
  }
  attr {
    key: "value"
    value {
      tensor {
        dtype: DT_STRING
        tensor_shape {
        }
        string_val: "conv-maxpool-3/W"
      }
    }
  }
}
node {
  name: "save/restore_slice_20/shape_and_slice"
  op: "Const"
  attr {
    key: "dtype"
    value {
      type: DT_STRING
    }
  }
  attr {
    key: "value"
    value {
      tensor {
        dtype: DT_STRING
        tensor_shape {
        }
        string_val: ""
      }
    }
  }
}
node {
  name: "save/restore_slice_20"
  op: "RestoreSlice"
  input: "save/Const"
  input: "save/restore_slice_20/tensor_name"
  input: "save/restore_slice_20/shape_and_slice"
  attr {
    key: "dt"
    value {
      type: DT_FLOAT
    }
  }
  attr {
    key: "preferred_shard"
    value {
      i: -1
    }
  }
}
node {
  name: "save/Assign_20"
  op: "Assign"
  input: "conv-maxpool-3/W"
  input: "save/restore_slice_20"
  attr {
    key: "T"
    value {
      type: DT_FLOAT
    }
  }
  attr {
    key: "_class"
    value {
      list {
        s: "loc:@conv-maxpool-3/W"
      }
    }
  }
  attr {
    key: "use_locking"
    value {
      b: true
    }
  }
  attr {
    key: "validate_shape"
    value {
      b: true
    }
  }
}
node {
  name: "save/restore_slice_21/tensor_name"
  op: "Const"
  attr {
    key: "dtype"
    value {
      type: DT_STRING
    }
  }
  attr {
    key: "value"
    value {
      tensor {
        dtype: DT_STRING
        tensor_shape {
        }
        string_val: "conv-maxpool-3/W/Adam"
      }
    }
  }
}
node {
  name: "save/restore_slice_21/shape_and_slice"
  op: "Const"
  attr {
    key: "dtype"
    value {
      type: DT_STRING
    }
  }
  attr {
    key: "value"
    value {
      tensor {
        dtype: DT_STRING
        tensor_shape {
        }
        string_val: ""
      }
    }
  }
}
node {
  name: "save/restore_slice_21"
  op: "RestoreSlice"
  input: "save/Const"
  input: "save/restore_slice_21/tensor_name"
  input: "save/restore_slice_21/shape_and_slice"
  attr {
    key: "dt"
    value {
      type: DT_FLOAT
    }
  }
  attr {
    key: "preferred_shard"
    value {
      i: -1
    }
  }
}
node {
  name: "save/Assign_21"
  op: "Assign"
  input: "conv-maxpool-3/W/Adam"
  input: "save/restore_slice_21"
  attr {
    key: "T"
    value {
      type: DT_FLOAT
    }
  }
  attr {
    key: "_class"
    value {
      list {
        s: "loc:@conv-maxpool-3/W"
      }
    }
  }
  attr {
    key: "use_locking"
    value {
      b: true
    }
  }
  attr {
    key: "validate_shape"
    value {
      b: true
    }
  }
}
node {
  name: "save/restore_slice_22/tensor_name"
  op: "Const"
  attr {
    key: "dtype"
    value {
      type: DT_STRING
    }
  }
  attr {
    key: "value"
    value {
      tensor {
        dtype: DT_STRING
        tensor_shape {
        }
        string_val: "conv-maxpool-3/W/Adam_1"
      }
    }
  }
}
node {
  name: "save/restore_slice_22/shape_and_slice"
  op: "Const"
  attr {
    key: "dtype"
    value {
      type: DT_STRING
    }
  }
  attr {
    key: "value"
    value {
      tensor {
        dtype: DT_STRING
        tensor_shape {
        }
        string_val: ""
      }
    }
  }
}
node {
  name: "save/restore_slice_22"
  op: "RestoreSlice"
  input: "save/Const"
  input: "save/restore_slice_22/tensor_name"
  input: "save/restore_slice_22/shape_and_slice"
  attr {
    key: "dt"
    value {
      type: DT_FLOAT
    }
  }
  attr {
    key: "preferred_shard"
    value {
      i: -1
    }
  }
}
node {
  name: "save/Assign_22"
  op: "Assign"
  input: "conv-maxpool-3/W/Adam_1"
  input: "save/restore_slice_22"
  attr {
    key: "T"
    value {
      type: DT_FLOAT
    }
  }
  attr {
    key: "_class"
    value {
      list {
        s: "loc:@conv-maxpool-3/W"
      }
    }
  }
  attr {
    key: "use_locking"
    value {
      b: true
    }
  }
  attr {
    key: "validate_shape"
    value {
      b: true
    }
  }
}
node {
  name: "save/restore_slice_23/tensor_name"
  op: "Const"
  attr {
    key: "dtype"
    value {
      type: DT_STRING
    }
  }
  attr {
    key: "value"
    value {
      tensor {
        dtype: DT_STRING
        tensor_shape {
        }
        string_val: "conv-maxpool-3/b"
      }
    }
  }
}
node {
  name: "save/restore_slice_23/shape_and_slice"
  op: "Const"
  attr {
    key: "dtype"
    value {
      type: DT_STRING
    }
  }
  attr {
    key: "value"
    value {
      tensor {
        dtype: DT_STRING
        tensor_shape {
        }
        string_val: ""
      }
    }
  }
}
node {
  name: "save/restore_slice_23"
  op: "RestoreSlice"
  input: "save/Const"
  input: "save/restore_slice_23/tensor_name"
  input: "save/restore_slice_23/shape_and_slice"
  attr {
    key: "dt"
    value {
      type: DT_FLOAT
    }
  }
  attr {
    key: "preferred_shard"
    value {
      i: -1
    }
  }
}
node {
  name: "save/Assign_23"
  op: "Assign"
  input: "conv-maxpool-3/b"
  input: "save/restore_slice_23"
  attr {
    key: "T"
    value {
      type: DT_FLOAT
    }
  }
  attr {
    key: "_class"
    value {
      list {
        s: "loc:@conv-maxpool-3/b"
      }
    }
  }
  attr {
    key: "use_locking"
    value {
      b: true
    }
  }
  attr {
    key: "validate_shape"
    value {
      b: true
    }
  }
}
node {
  name: "save/restore_slice_24/tensor_name"
  op: "Const"
  attr {
    key: "dtype"
    value {
      type: DT_STRING
    }
  }
  attr {
    key: "value"
    value {
      tensor {
        dtype: DT_STRING
        tensor_shape {
        }
        string_val: "conv-maxpool-3/b/Adam"
      }
    }
  }
}
node {
  name: "save/restore_slice_24/shape_and_slice"
  op: "Const"
  attr {
    key: "dtype"
    value {
      type: DT_STRING
    }
  }
  attr {
    key: "value"
    value {
      tensor {
        dtype: DT_STRING
        tensor_shape {
        }
        string_val: ""
      }
    }
  }
}
node {
  name: "save/restore_slice_24"
  op: "RestoreSlice"
  input: "save/Const"
  input: "save/restore_slice_24/tensor_name"
  input: "save/restore_slice_24/shape_and_slice"
  attr {
    key: "dt"
    value {
      type: DT_FLOAT
    }
  }
  attr {
    key: "preferred_shard"
    value {
      i: -1
    }
  }
}
node {
  name: "save/Assign_24"
  op: "Assign"
  input: "conv-maxpool-3/b/Adam"
  input: "save/restore_slice_24"
  attr {
    key: "T"
    value {
      type: DT_FLOAT
    }
  }
  attr {
    key: "_class"
    value {
      list {
        s: "loc:@conv-maxpool-3/b"
      }
    }
  }
  attr {
    key: "use_locking"
    value {
      b: true
    }
  }
  attr {
    key: "validate_shape"
    value {
      b: true
    }
  }
}
node {
  name: "save/restore_slice_25/tensor_name"
  op: "Const"
  attr {
    key: "dtype"
    value {
      type: DT_STRING
    }
  }
  attr {
    key: "value"
    value {
      tensor {
        dtype: DT_STRING
        tensor_shape {
        }
        string_val: "conv-maxpool-3/b/Adam_1"
      }
    }
  }
}
node {
  name: "save/restore_slice_25/shape_and_slice"
  op: "Const"
  attr {
    key: "dtype"
    value {
      type: DT_STRING
    }
  }
  attr {
    key: "value"
    value {
      tensor {
        dtype: DT_STRING
        tensor_shape {
        }
        string_val: ""
      }
    }
  }
}
node {
  name: "save/restore_slice_25"
  op: "RestoreSlice"
  input: "save/Const"
  input: "save/restore_slice_25/tensor_name"
  input: "save/restore_slice_25/shape_and_slice"
  attr {
    key: "dt"
    value {
      type: DT_FLOAT
    }
  }
  attr {
    key: "preferred_shard"
    value {
      i: -1
    }
  }
}
node {
  name: "save/Assign_25"
  op: "Assign"
  input: "conv-maxpool-3/b/Adam_1"
  input: "save/restore_slice_25"
  attr {
    key: "T"
    value {
      type: DT_FLOAT
    }
  }
  attr {
    key: "_class"
    value {
      list {
        s: "loc:@conv-maxpool-3/b"
      }
    }
  }
  attr {
    key: "use_locking"
    value {
      b: true
    }
  }
  attr {
    key: "validate_shape"
    value {
      b: true
    }
  }
}
node {
  name: "save/restore_slice_26/tensor_name"
  op: "Const"
  attr {
    key: "dtype"
    value {
      type: DT_STRING
    }
  }
  attr {
    key: "value"
    value {
      tensor {
        dtype: DT_STRING
        tensor_shape {
        }
        string_val: "conv-maxpool-4/W"
      }
    }
  }
}
node {
  name: "save/restore_slice_26/shape_and_slice"
  op: "Const"
  attr {
    key: "dtype"
    value {
      type: DT_STRING
    }
  }
  attr {
    key: "value"
    value {
      tensor {
        dtype: DT_STRING
        tensor_shape {
        }
        string_val: ""
      }
    }
  }
}
node {
  name: "save/restore_slice_26"
  op: "RestoreSlice"
  input: "save/Const"
  input: "save/restore_slice_26/tensor_name"
  input: "save/restore_slice_26/shape_and_slice"
  attr {
    key: "dt"
    value {
      type: DT_FLOAT
    }
  }
  attr {
    key: "preferred_shard"
    value {
      i: -1
    }
  }
}
node {
  name: "save/Assign_26"
  op: "Assign"
  input: "conv-maxpool-4/W"
  input: "save/restore_slice_26"
  attr {
    key: "T"
    value {
      type: DT_FLOAT
    }
  }
  attr {
    key: "_class"
    value {
      list {
        s: "loc:@conv-maxpool-4/W"
      }
    }
  }
  attr {
    key: "use_locking"
    value {
      b: true
    }
  }
  attr {
    key: "validate_shape"
    value {
      b: true
    }
  }
}
node {
  name: "save/restore_slice_27/tensor_name"
  op: "Const"
  attr {
    key: "dtype"
    value {
      type: DT_STRING
    }
  }
  attr {
    key: "value"
    value {
      tensor {
        dtype: DT_STRING
        tensor_shape {
        }
        string_val: "conv-maxpool-4/W/Adam"
      }
    }
  }
}
node {
  name: "save/restore_slice_27/shape_and_slice"
  op: "Const"
  attr {
    key: "dtype"
    value {
      type: DT_STRING
    }
  }
  attr {
    key: "value"
    value {
      tensor {
        dtype: DT_STRING
        tensor_shape {
        }
        string_val: ""
      }
    }
  }
}
node {
  name: "save/restore_slice_27"
  op: "RestoreSlice"
  input: "save/Const"
  input: "save/restore_slice_27/tensor_name"
  input: "save/restore_slice_27/shape_and_slice"
  attr {
    key: "dt"
    value {
      type: DT_FLOAT
    }
  }
  attr {
    key: "preferred_shard"
    value {
      i: -1
    }
  }
}
node {
  name: "save/Assign_27"
  op: "Assign"
  input: "conv-maxpool-4/W/Adam"
  input: "save/restore_slice_27"
  attr {
    key: "T"
    value {
      type: DT_FLOAT
    }
  }
  attr {
    key: "_class"
    value {
      list {
        s: "loc:@conv-maxpool-4/W"
      }
    }
  }
  attr {
    key: "use_locking"
    value {
      b: true
    }
  }
  attr {
    key: "validate_shape"
    value {
      b: true
    }
  }
}
node {
  name: "save/restore_slice_28/tensor_name"
  op: "Const"
  attr {
    key: "dtype"
    value {
      type: DT_STRING
    }
  }
  attr {
    key: "value"
    value {
      tensor {
        dtype: DT_STRING
        tensor_shape {
        }
        string_val: "conv-maxpool-4/W/Adam_1"
      }
    }
  }
}
node {
  name: "save/restore_slice_28/shape_and_slice"
  op: "Const"
  attr {
    key: "dtype"
    value {
      type: DT_STRING
    }
  }
  attr {
    key: "value"
    value {
      tensor {
        dtype: DT_STRING
        tensor_shape {
        }
        string_val: ""
      }
    }
  }
}
node {
  name: "save/restore_slice_28"
  op: "RestoreSlice"
  input: "save/Const"
  input: "save/restore_slice_28/tensor_name"
  input: "save/restore_slice_28/shape_and_slice"
  attr {
    key: "dt"
    value {
      type: DT_FLOAT
    }
  }
  attr {
    key: "preferred_shard"
    value {
      i: -1
    }
  }
}
node {
  name: "save/Assign_28"
  op: "Assign"
  input: "conv-maxpool-4/W/Adam_1"
  input: "save/restore_slice_28"
  attr {
    key: "T"
    value {
      type: DT_FLOAT
    }
  }
  attr {
    key: "_class"
    value {
      list {
        s: "loc:@conv-maxpool-4/W"
      }
    }
  }
  attr {
    key: "use_locking"
    value {
      b: true
    }
  }
  attr {
    key: "validate_shape"
    value {
      b: true
    }
  }
}
node {
  name: "save/restore_slice_29/tensor_name"
  op: "Const"
  attr {
    key: "dtype"
    value {
      type: DT_STRING
    }
  }
  attr {
    key: "value"
    value {
      tensor {
        dtype: DT_STRING
        tensor_shape {
        }
        string_val: "conv-maxpool-4/b"
      }
    }
  }
}
node {
  name: "save/restore_slice_29/shape_and_slice"
  op: "Const"
  attr {
    key: "dtype"
    value {
      type: DT_STRING
    }
  }
  attr {
    key: "value"
    value {
      tensor {
        dtype: DT_STRING
        tensor_shape {
        }
        string_val: ""
      }
    }
  }
}
node {
  name: "save/restore_slice_29"
  op: "RestoreSlice"
  input: "save/Const"
  input: "save/restore_slice_29/tensor_name"
  input: "save/restore_slice_29/shape_and_slice"
  attr {
    key: "dt"
    value {
      type: DT_FLOAT
    }
  }
  attr {
    key: "preferred_shard"
    value {
      i: -1
    }
  }
}
node {
  name: "save/Assign_29"
  op: "Assign"
  input: "conv-maxpool-4/b"
  input: "save/restore_slice_29"
  attr {
    key: "T"
    value {
      type: DT_FLOAT
    }
  }
  attr {
    key: "_class"
    value {
      list {
        s: "loc:@conv-maxpool-4/b"
      }
    }
  }
  attr {
    key: "use_locking"
    value {
      b: true
    }
  }
  attr {
    key: "validate_shape"
    value {
      b: true
    }
  }
}
node {
  name: "save/restore_slice_30/tensor_name"
  op: "Const"
  attr {
    key: "dtype"
    value {
      type: DT_STRING
    }
  }
  attr {
    key: "value"
    value {
      tensor {
        dtype: DT_STRING
        tensor_shape {
        }
        string_val: "conv-maxpool-4/b/Adam"
      }
    }
  }
}
node {
  name: "save/restore_slice_30/shape_and_slice"
  op: "Const"
  attr {
    key: "dtype"
    value {
      type: DT_STRING
    }
  }
  attr {
    key: "value"
    value {
      tensor {
        dtype: DT_STRING
        tensor_shape {
        }
        string_val: ""
      }
    }
  }
}
node {
  name: "save/restore_slice_30"
  op: "RestoreSlice"
  input: "save/Const"
  input: "save/restore_slice_30/tensor_name"
  input: "save/restore_slice_30/shape_and_slice"
  attr {
    key: "dt"
    value {
      type: DT_FLOAT
    }
  }
  attr {
    key: "preferred_shard"
    value {
      i: -1
    }
  }
}
node {
  name: "save/Assign_30"
  op: "Assign"
  input: "conv-maxpool-4/b/Adam"
  input: "save/restore_slice_30"
  attr {
    key: "T"
    value {
      type: DT_FLOAT
    }
  }
  attr {
    key: "_class"
    value {
      list {
        s: "loc:@conv-maxpool-4/b"
      }
    }
  }
  attr {
    key: "use_locking"
    value {
      b: true
    }
  }
  attr {
    key: "validate_shape"
    value {
      b: true
    }
  }
}
node {
  name: "save/restore_slice_31/tensor_name"
  op: "Const"
  attr {
    key: "dtype"
    value {
      type: DT_STRING
    }
  }
  attr {
    key: "value"
    value {
      tensor {
        dtype: DT_STRING
        tensor_shape {
        }
        string_val: "conv-maxpool-4/b/Adam_1"
      }
    }
  }
}
node {
  name: "save/restore_slice_31/shape_and_slice"
  op: "Const"
  attr {
    key: "dtype"
    value {
      type: DT_STRING
    }
  }
  attr {
    key: "value"
    value {
      tensor {
        dtype: DT_STRING
        tensor_shape {
        }
        string_val: ""
      }
    }
  }
}
node {
  name: "save/restore_slice_31"
  op: "RestoreSlice"
  input: "save/Const"
  input: "save/restore_slice_31/tensor_name"
  input: "save/restore_slice_31/shape_and_slice"
  attr {
    key: "dt"
    value {
      type: DT_FLOAT
    }
  }
  attr {
    key: "preferred_shard"
    value {
      i: -1
    }
  }
}
node {
  name: "save/Assign_31"
  op: "Assign"
  input: "conv-maxpool-4/b/Adam_1"
  input: "save/restore_slice_31"
  attr {
    key: "T"
    value {
      type: DT_FLOAT
    }
  }
  attr {
    key: "_class"
    value {
      list {
        s: "loc:@conv-maxpool-4/b"
      }
    }
  }
  attr {
    key: "use_locking"
    value {
      b: true
    }
  }
  attr {
    key: "validate_shape"
    value {
      b: true
    }
  }
}
node {
  name: "save/restore_slice_32/tensor_name"
  op: "Const"
  device: "/device:CPU:0"
  attr {
    key: "dtype"
    value {
      type: DT_STRING
    }
  }
  attr {
    key: "value"
    value {
      tensor {
        dtype: DT_STRING
        tensor_shape {
        }
        string_val: "embedding/W"
      }
    }
  }
}
node {
  name: "save/restore_slice_32/shape_and_slice"
  op: "Const"
  device: "/device:CPU:0"
  attr {
    key: "dtype"
    value {
      type: DT_STRING
    }
  }
  attr {
    key: "value"
    value {
      tensor {
        dtype: DT_STRING
        tensor_shape {
        }
        string_val: ""
      }
    }
  }
}
node {
  name: "save/restore_slice_32"
  op: "RestoreSlice"
  input: "save/Const"
  input: "save/restore_slice_32/tensor_name"
  input: "save/restore_slice_32/shape_and_slice"
  device: "/device:CPU:0"
  attr {
    key: "dt"
    value {
      type: DT_FLOAT
    }
  }
  attr {
    key: "preferred_shard"
    value {
      i: -1
    }
  }
}
node {
  name: "save/Assign_32"
  op: "Assign"
  input: "embedding/W"
  input: "save/restore_slice_32"
  device: "/device:CPU:0"
  attr {
    key: "T"
    value {
      type: DT_FLOAT
    }
  }
  attr {
    key: "_class"
    value {
      list {
        s: "loc:@embedding/W"
      }
    }
  }
  attr {
    key: "use_locking"
    value {
      b: true
    }
  }
  attr {
    key: "validate_shape"
    value {
      b: true
    }
  }
}
node {
  name: "save/restore_slice_33/tensor_name"
  op: "Const"
  attr {
    key: "dtype"
    value {
      type: DT_STRING
    }
  }
  attr {
    key: "value"
    value {
      tensor {
        dtype: DT_STRING
        tensor_shape {
        }
        string_val: "global_step"
      }
    }
  }
}
node {
  name: "save/restore_slice_33/shape_and_slice"
  op: "Const"
  attr {
    key: "dtype"
    value {
      type: DT_STRING
    }
  }
  attr {
    key: "value"
    value {
      tensor {
        dtype: DT_STRING
        tensor_shape {
        }
        string_val: ""
      }
    }
  }
}
node {
  name: "save/restore_slice_33"
  op: "RestoreSlice"
  input: "save/Const"
  input: "save/restore_slice_33/tensor_name"
  input: "save/restore_slice_33/shape_and_slice"
  attr {
    key: "dt"
    value {
      type: DT_INT32
    }
  }
  attr {
    key: "preferred_shard"
    value {
      i: -1
    }
  }
}
node {
  name: "save/Assign_33"
  op: "Assign"
  input: "global_step"
  input: "save/restore_slice_33"
  attr {
    key: "T"
    value {
      type: DT_INT32
    }
  }
  attr {
    key: "_class"
    value {
      list {
        s: "loc:@global_step"
      }
    }
  }
  attr {
    key: "use_locking"
    value {
      b: true
    }
  }
  attr {
    key: "validate_shape"
    value {
      b: true
    }
  }
}
node {
  name: "save/restore_slice_34/tensor_name"
  op: "Const"
  attr {
    key: "dtype"
    value {
      type: DT_STRING
    }
  }
  attr {
    key: "value"
    value {
      tensor {
        dtype: DT_STRING
        tensor_shape {
        }
        string_val: "output0/b0"
      }
    }
  }
}
node {
  name: "save/restore_slice_34/shape_and_slice"
  op: "Const"
  attr {
    key: "dtype"
    value {
      type: DT_STRING
    }
  }
  attr {
    key: "value"
    value {
      tensor {
        dtype: DT_STRING
        tensor_shape {
        }
        string_val: ""
      }
    }
  }
}
node {
  name: "save/restore_slice_34"
  op: "RestoreSlice"
  input: "save/Const"
  input: "save/restore_slice_34/tensor_name"
  input: "save/restore_slice_34/shape_and_slice"
  attr {
    key: "dt"
    value {
      type: DT_FLOAT
    }
  }
  attr {
    key: "preferred_shard"
    value {
      i: -1
    }
  }
}
node {
  name: "save/Assign_34"
  op: "Assign"
  input: "output0/b0"
  input: "save/restore_slice_34"
  attr {
    key: "T"
    value {
      type: DT_FLOAT
    }
  }
  attr {
    key: "_class"
    value {
      list {
        s: "loc:@output0/b0"
      }
    }
  }
  attr {
    key: "use_locking"
    value {
      b: true
    }
  }
  attr {
    key: "validate_shape"
    value {
      b: true
    }
  }
}
node {
  name: "save/restore_slice_35/tensor_name"
  op: "Const"
  attr {
    key: "dtype"
    value {
      type: DT_STRING
    }
  }
  attr {
    key: "value"
    value {
      tensor {
        dtype: DT_STRING
        tensor_shape {
        }
        string_val: "output0/b0/Adam"
      }
    }
  }
}
node {
  name: "save/restore_slice_35/shape_and_slice"
  op: "Const"
  attr {
    key: "dtype"
    value {
      type: DT_STRING
    }
  }
  attr {
    key: "value"
    value {
      tensor {
        dtype: DT_STRING
        tensor_shape {
        }
        string_val: ""
      }
    }
  }
}
node {
  name: "save/restore_slice_35"
  op: "RestoreSlice"
  input: "save/Const"
  input: "save/restore_slice_35/tensor_name"
  input: "save/restore_slice_35/shape_and_slice"
  attr {
    key: "dt"
    value {
      type: DT_FLOAT
    }
  }
  attr {
    key: "preferred_shard"
    value {
      i: -1
    }
  }
}
node {
  name: "save/Assign_35"
  op: "Assign"
  input: "output0/b0/Adam"
  input: "save/restore_slice_35"
  attr {
    key: "T"
    value {
      type: DT_FLOAT
    }
  }
  attr {
    key: "_class"
    value {
      list {
        s: "loc:@output0/b0"
      }
    }
  }
  attr {
    key: "use_locking"
    value {
      b: true
    }
  }
  attr {
    key: "validate_shape"
    value {
      b: true
    }
  }
}
node {
  name: "save/restore_slice_36/tensor_name"
  op: "Const"
  attr {
    key: "dtype"
    value {
      type: DT_STRING
    }
  }
  attr {
    key: "value"
    value {
      tensor {
        dtype: DT_STRING
        tensor_shape {
        }
        string_val: "output0/b0/Adam_1"
      }
    }
  }
}
node {
  name: "save/restore_slice_36/shape_and_slice"
  op: "Const"
  attr {
    key: "dtype"
    value {
      type: DT_STRING
    }
  }
  attr {
    key: "value"
    value {
      tensor {
        dtype: DT_STRING
        tensor_shape {
        }
        string_val: ""
      }
    }
  }
}
node {
  name: "save/restore_slice_36"
  op: "RestoreSlice"
  input: "save/Const"
  input: "save/restore_slice_36/tensor_name"
  input: "save/restore_slice_36/shape_and_slice"
  attr {
    key: "dt"
    value {
      type: DT_FLOAT
    }
  }
  attr {
    key: "preferred_shard"
    value {
      i: -1
    }
  }
}
node {
  name: "save/Assign_36"
  op: "Assign"
  input: "output0/b0/Adam_1"
  input: "save/restore_slice_36"
  attr {
    key: "T"
    value {
      type: DT_FLOAT
    }
  }
  attr {
    key: "_class"
    value {
      list {
        s: "loc:@output0/b0"
      }
    }
  }
  attr {
    key: "use_locking"
    value {
      b: true
    }
  }
  attr {
    key: "validate_shape"
    value {
      b: true
    }
  }
}
node {
  name: "save/restore_slice_37/tensor_name"
  op: "Const"
  attr {
    key: "dtype"
    value {
      type: DT_STRING
    }
  }
  attr {
    key: "value"
    value {
      tensor {
        dtype: DT_STRING
        tensor_shape {
        }
        string_val: "output0/b20"
      }
    }
  }
}
node {
  name: "save/restore_slice_37/shape_and_slice"
  op: "Const"
  attr {
    key: "dtype"
    value {
      type: DT_STRING
    }
  }
  attr {
    key: "value"
    value {
      tensor {
        dtype: DT_STRING
        tensor_shape {
        }
        string_val: ""
      }
    }
  }
}
node {
  name: "save/restore_slice_37"
  op: "RestoreSlice"
  input: "save/Const"
  input: "save/restore_slice_37/tensor_name"
  input: "save/restore_slice_37/shape_and_slice"
  attr {
    key: "dt"
    value {
      type: DT_FLOAT
    }
  }
  attr {
    key: "preferred_shard"
    value {
      i: -1
    }
  }
}
node {
  name: "save/Assign_37"
  op: "Assign"
  input: "output0/b20"
  input: "save/restore_slice_37"
  attr {
    key: "T"
    value {
      type: DT_FLOAT
    }
  }
  attr {
    key: "_class"
    value {
      list {
        s: "loc:@output0/b20"
      }
    }
  }
  attr {
    key: "use_locking"
    value {
      b: true
    }
  }
  attr {
    key: "validate_shape"
    value {
      b: true
    }
  }
}
node {
  name: "save/restore_slice_38/tensor_name"
  op: "Const"
  attr {
    key: "dtype"
    value {
      type: DT_STRING
    }
  }
  attr {
    key: "value"
    value {
      tensor {
        dtype: DT_STRING
        tensor_shape {
        }
        string_val: "output0/b20/Adam"
      }
    }
  }
}
node {
  name: "save/restore_slice_38/shape_and_slice"
  op: "Const"
  attr {
    key: "dtype"
    value {
      type: DT_STRING
    }
  }
  attr {
    key: "value"
    value {
      tensor {
        dtype: DT_STRING
        tensor_shape {
        }
        string_val: ""
      }
    }
  }
}
node {
  name: "save/restore_slice_38"
  op: "RestoreSlice"
  input: "save/Const"
  input: "save/restore_slice_38/tensor_name"
  input: "save/restore_slice_38/shape_and_slice"
  attr {
    key: "dt"
    value {
      type: DT_FLOAT
    }
  }
  attr {
    key: "preferred_shard"
    value {
      i: -1
    }
  }
}
node {
  name: "save/Assign_38"
  op: "Assign"
  input: "output0/b20/Adam"
  input: "save/restore_slice_38"
  attr {
    key: "T"
    value {
      type: DT_FLOAT
    }
  }
  attr {
    key: "_class"
    value {
      list {
        s: "loc:@output0/b20"
      }
    }
  }
  attr {
    key: "use_locking"
    value {
      b: true
    }
  }
  attr {
    key: "validate_shape"
    value {
      b: true
    }
  }
}
node {
  name: "save/restore_slice_39/tensor_name"
  op: "Const"
  attr {
    key: "dtype"
    value {
      type: DT_STRING
    }
  }
  attr {
    key: "value"
    value {
      tensor {
        dtype: DT_STRING
        tensor_shape {
        }
        string_val: "output0/b20/Adam_1"
      }
    }
  }
}
node {
  name: "save/restore_slice_39/shape_and_slice"
  op: "Const"
  attr {
    key: "dtype"
    value {
      type: DT_STRING
    }
  }
  attr {
    key: "value"
    value {
      tensor {
        dtype: DT_STRING
        tensor_shape {
        }
        string_val: ""
      }
    }
  }
}
node {
  name: "save/restore_slice_39"
  op: "RestoreSlice"
  input: "save/Const"
  input: "save/restore_slice_39/tensor_name"
  input: "save/restore_slice_39/shape_and_slice"
  attr {
    key: "dt"
    value {
      type: DT_FLOAT
    }
  }
  attr {
    key: "preferred_shard"
    value {
      i: -1
    }
  }
}
node {
  name: "save/Assign_39"
  op: "Assign"
  input: "output0/b20/Adam_1"
  input: "save/restore_slice_39"
  attr {
    key: "T"
    value {
      type: DT_FLOAT
    }
  }
  attr {
    key: "_class"
    value {
      list {
        s: "loc:@output0/b20"
      }
    }
  }
  attr {
    key: "use_locking"
    value {
      b: true
    }
  }
  attr {
    key: "validate_shape"
    value {
      b: true
    }
  }
}
node {
  name: "save/restore_slice_40/tensor_name"
  op: "Const"
  attr {
    key: "dtype"
    value {
      type: DT_STRING
    }
  }
  attr {
    key: "value"
    value {
      tensor {
        dtype: DT_STRING
        tensor_shape {
        }
        string_val: "output1/b1"
      }
    }
  }
}
node {
  name: "save/restore_slice_40/shape_and_slice"
  op: "Const"
  attr {
    key: "dtype"
    value {
      type: DT_STRING
    }
  }
  attr {
    key: "value"
    value {
      tensor {
        dtype: DT_STRING
        tensor_shape {
        }
        string_val: ""
      }
    }
  }
}
node {
  name: "save/restore_slice_40"
  op: "RestoreSlice"
  input: "save/Const"
  input: "save/restore_slice_40/tensor_name"
  input: "save/restore_slice_40/shape_and_slice"
  attr {
    key: "dt"
    value {
      type: DT_FLOAT
    }
  }
  attr {
    key: "preferred_shard"
    value {
      i: -1
    }
  }
}
node {
  name: "save/Assign_40"
  op: "Assign"
  input: "output1/b1"
  input: "save/restore_slice_40"
  attr {
    key: "T"
    value {
      type: DT_FLOAT
    }
  }
  attr {
    key: "_class"
    value {
      list {
        s: "loc:@output1/b1"
      }
    }
  }
  attr {
    key: "use_locking"
    value {
      b: true
    }
  }
  attr {
    key: "validate_shape"
    value {
      b: true
    }
  }
}
node {
  name: "save/restore_slice_41/tensor_name"
  op: "Const"
  attr {
    key: "dtype"
    value {
      type: DT_STRING
    }
  }
  attr {
    key: "value"
    value {
      tensor {
        dtype: DT_STRING
        tensor_shape {
        }
        string_val: "output1/b1/Adam"
      }
    }
  }
}
node {
  name: "save/restore_slice_41/shape_and_slice"
  op: "Const"
  attr {
    key: "dtype"
    value {
      type: DT_STRING
    }
  }
  attr {
    key: "value"
    value {
      tensor {
        dtype: DT_STRING
        tensor_shape {
        }
        string_val: ""
      }
    }
  }
}
node {
  name: "save/restore_slice_41"
  op: "RestoreSlice"
  input: "save/Const"
  input: "save/restore_slice_41/tensor_name"
  input: "save/restore_slice_41/shape_and_slice"
  attr {
    key: "dt"
    value {
      type: DT_FLOAT
    }
  }
  attr {
    key: "preferred_shard"
    value {
      i: -1
    }
  }
}
node {
  name: "save/Assign_41"
  op: "Assign"
  input: "output1/b1/Adam"
  input: "save/restore_slice_41"
  attr {
    key: "T"
    value {
      type: DT_FLOAT
    }
  }
  attr {
    key: "_class"
    value {
      list {
        s: "loc:@output1/b1"
      }
    }
  }
  attr {
    key: "use_locking"
    value {
      b: true
    }
  }
  attr {
    key: "validate_shape"
    value {
      b: true
    }
  }
}
node {
  name: "save/restore_slice_42/tensor_name"
  op: "Const"
  attr {
    key: "dtype"
    value {
      type: DT_STRING
    }
  }
  attr {
    key: "value"
    value {
      tensor {
        dtype: DT_STRING
        tensor_shape {
        }
        string_val: "output1/b1/Adam_1"
      }
    }
  }
}
node {
  name: "save/restore_slice_42/shape_and_slice"
  op: "Const"
  attr {
    key: "dtype"
    value {
      type: DT_STRING
    }
  }
  attr {
    key: "value"
    value {
      tensor {
        dtype: DT_STRING
        tensor_shape {
        }
        string_val: ""
      }
    }
  }
}
node {
  name: "save/restore_slice_42"
  op: "RestoreSlice"
  input: "save/Const"
  input: "save/restore_slice_42/tensor_name"
  input: "save/restore_slice_42/shape_and_slice"
  attr {
    key: "dt"
    value {
      type: DT_FLOAT
    }
  }
  attr {
    key: "preferred_shard"
    value {
      i: -1
    }
  }
}
node {
  name: "save/Assign_42"
  op: "Assign"
  input: "output1/b1/Adam_1"
  input: "save/restore_slice_42"
  attr {
    key: "T"
    value {
      type: DT_FLOAT
    }
  }
  attr {
    key: "_class"
    value {
      list {
        s: "loc:@output1/b1"
      }
    }
  }
  attr {
    key: "use_locking"
    value {
      b: true
    }
  }
  attr {
    key: "validate_shape"
    value {
      b: true
    }
  }
}
node {
  name: "save/restore_slice_43/tensor_name"
  op: "Const"
  attr {
    key: "dtype"
    value {
      type: DT_STRING
    }
  }
  attr {
    key: "value"
    value {
      tensor {
        dtype: DT_STRING
        tensor_shape {
        }
        string_val: "output1/b21"
      }
    }
  }
}
node {
  name: "save/restore_slice_43/shape_and_slice"
  op: "Const"
  attr {
    key: "dtype"
    value {
      type: DT_STRING
    }
  }
  attr {
    key: "value"
    value {
      tensor {
        dtype: DT_STRING
        tensor_shape {
        }
        string_val: ""
      }
    }
  }
}
node {
  name: "save/restore_slice_43"
  op: "RestoreSlice"
  input: "save/Const"
  input: "save/restore_slice_43/tensor_name"
  input: "save/restore_slice_43/shape_and_slice"
  attr {
    key: "dt"
    value {
      type: DT_FLOAT
    }
  }
  attr {
    key: "preferred_shard"
    value {
      i: -1
    }
  }
}
node {
  name: "save/Assign_43"
  op: "Assign"
  input: "output1/b21"
  input: "save/restore_slice_43"
  attr {
    key: "T"
    value {
      type: DT_FLOAT
    }
  }
  attr {
    key: "_class"
    value {
      list {
        s: "loc:@output1/b21"
      }
    }
  }
  attr {
    key: "use_locking"
    value {
      b: true
    }
  }
  attr {
    key: "validate_shape"
    value {
      b: true
    }
  }
}
node {
  name: "save/restore_slice_44/tensor_name"
  op: "Const"
  attr {
    key: "dtype"
    value {
      type: DT_STRING
    }
  }
  attr {
    key: "value"
    value {
      tensor {
        dtype: DT_STRING
        tensor_shape {
        }
        string_val: "output1/b21/Adam"
      }
    }
  }
}
node {
  name: "save/restore_slice_44/shape_and_slice"
  op: "Const"
  attr {
    key: "dtype"
    value {
      type: DT_STRING
    }
  }
  attr {
    key: "value"
    value {
      tensor {
        dtype: DT_STRING
        tensor_shape {
        }
        string_val: ""
      }
    }
  }
}
node {
  name: "save/restore_slice_44"
  op: "RestoreSlice"
  input: "save/Const"
  input: "save/restore_slice_44/tensor_name"
  input: "save/restore_slice_44/shape_and_slice"
  attr {
    key: "dt"
    value {
      type: DT_FLOAT
    }
  }
  attr {
    key: "preferred_shard"
    value {
      i: -1
    }
  }
}
node {
  name: "save/Assign_44"
  op: "Assign"
  input: "output1/b21/Adam"
  input: "save/restore_slice_44"
  attr {
    key: "T"
    value {
      type: DT_FLOAT
    }
  }
  attr {
    key: "_class"
    value {
      list {
        s: "loc:@output1/b21"
      }
    }
  }
  attr {
    key: "use_locking"
    value {
      b: true
    }
  }
  attr {
    key: "validate_shape"
    value {
      b: true
    }
  }
}
node {
  name: "save/restore_slice_45/tensor_name"
  op: "Const"
  attr {
    key: "dtype"
    value {
      type: DT_STRING
    }
  }
  attr {
    key: "value"
    value {
      tensor {
        dtype: DT_STRING
        tensor_shape {
        }
        string_val: "output1/b21/Adam_1"
      }
    }
  }
}
node {
  name: "save/restore_slice_45/shape_and_slice"
  op: "Const"
  attr {
    key: "dtype"
    value {
      type: DT_STRING
    }
  }
  attr {
    key: "value"
    value {
      tensor {
        dtype: DT_STRING
        tensor_shape {
        }
        string_val: ""
      }
    }
  }
}
node {
  name: "save/restore_slice_45"
  op: "RestoreSlice"
  input: "save/Const"
  input: "save/restore_slice_45/tensor_name"
  input: "save/restore_slice_45/shape_and_slice"
  attr {
    key: "dt"
    value {
      type: DT_FLOAT
    }
  }
  attr {
    key: "preferred_shard"
    value {
      i: -1
    }
  }
}
node {
  name: "save/Assign_45"
  op: "Assign"
  input: "output1/b21/Adam_1"
  input: "save/restore_slice_45"
  attr {
    key: "T"
    value {
      type: DT_FLOAT
    }
  }
  attr {
    key: "_class"
    value {
      list {
        s: "loc:@output1/b21"
      }
    }
  }
  attr {
    key: "use_locking"
    value {
      b: true
    }
  }
  attr {
    key: "validate_shape"
    value {
      b: true
    }
  }
}
node {
  name: "save/restore_all/NoOp"
  op: "NoOp"
  input: "^save/Assign"
  input: "^save/Assign_1"
  input: "^save/Assign_2"
  input: "^save/Assign_3"
  input: "^save/Assign_4"
  input: "^save/Assign_5"
  input: "^save/Assign_6"
  input: "^save/Assign_7"
  input: "^save/Assign_8"
  input: "^save/Assign_9"
  input: "^save/Assign_10"
  input: "^save/Assign_11"
  input: "^save/Assign_12"
  input: "^save/Assign_13"
  input: "^save/Assign_14"
  input: "^save/Assign_15"
  input: "^save/Assign_16"
  input: "^save/Assign_17"
  input: "^save/Assign_18"
  input: "^save/Assign_19"
  input: "^save/Assign_20"
  input: "^save/Assign_21"
  input: "^save/Assign_22"
  input: "^save/Assign_23"
  input: "^save/Assign_24"
  input: "^save/Assign_25"
  input: "^save/Assign_26"
  input: "^save/Assign_27"
  input: "^save/Assign_28"
  input: "^save/Assign_29"
  input: "^save/Assign_30"
  input: "^save/Assign_31"
  input: "^save/Assign_33"
  input: "^save/Assign_34"
  input: "^save/Assign_35"
  input: "^save/Assign_36"
  input: "^save/Assign_37"
  input: "^save/Assign_38"
  input: "^save/Assign_39"
  input: "^save/Assign_40"
  input: "^save/Assign_41"
  input: "^save/Assign_42"
  input: "^save/Assign_43"
  input: "^save/Assign_44"
  input: "^save/Assign_45"
}
node {
  name: "save/restore_all/NoOp_1"
  op: "NoOp"
  input: "^save/Assign_32"
  device: "/device:CPU:0"
}
node {
  name: "save/restore_all"
  op: "NoOp"
  input: "^save/restore_all/NoOp"
  input: "^save/restore_all/NoOp_1"
}
node {
  name: "init/NoOp"
  op: "NoOp"
  input: "^conv-maxpool-2/W/Assign"
  input: "^conv-maxpool-2/b/Assign"
  input: "^conv-maxpool-3/W/Assign"
  input: "^conv-maxpool-3/b/Assign"
  input: "^conv-maxpool-4/W/Assign"
  input: "^conv-maxpool-4/b/Assign"
  input: "^W0/Assign"
  input: "^output0/b0/Assign"
  input: "^W20/Assign"
  input: "^output0/b20/Assign"
  input: "^W1/Assign"
  input: "^output1/b1/Assign"
  input: "^W21/Assign"
  input: "^output1/b21/Assign"
  input: "^global_step/Assign"
  input: "^beta1_power/Assign"
  input: "^beta2_power/Assign"
  input: "^conv-maxpool-2/W/Adam/Assign"
  input: "^conv-maxpool-2/W/Adam_1/Assign"
  input: "^conv-maxpool-2/b/Adam/Assign"
  input: "^conv-maxpool-2/b/Adam_1/Assign"
  input: "^conv-maxpool-3/W/Adam/Assign"
  input: "^conv-maxpool-3/W/Adam_1/Assign"
  input: "^conv-maxpool-3/b/Adam/Assign"
  input: "^conv-maxpool-3/b/Adam_1/Assign"
  input: "^conv-maxpool-4/W/Adam/Assign"
  input: "^conv-maxpool-4/W/Adam_1/Assign"
  input: "^conv-maxpool-4/b/Adam/Assign"
  input: "^conv-maxpool-4/b/Adam_1/Assign"
  input: "^W0/Adam/Assign"
  input: "^W0/Adam_1/Assign"
  input: "^output0/b0/Adam/Assign"
  input: "^output0/b0/Adam_1/Assign"
  input: "^W20/Adam/Assign"
  input: "^W20/Adam_1/Assign"
  input: "^output0/b20/Adam/Assign"
  input: "^output0/b20/Adam_1/Assign"
  input: "^W1/Adam/Assign"
  input: "^W1/Adam_1/Assign"
  input: "^output1/b1/Adam/Assign"
  input: "^output1/b1/Adam_1/Assign"
  input: "^W21/Adam/Assign"
  input: "^W21/Adam_1/Assign"
  input: "^output1/b21/Adam/Assign"
  input: "^output1/b21/Adam_1/Assign"
}
node {
  name: "init/NoOp_1"
  op: "NoOp"
  input: "^embedding/W/Assign"
  device: "/device:CPU:0"
}
node {
  name: "init"
  op: "NoOp"
  input: "^init/NoOp"
  input: "^init/NoOp_1"
}
versions {
  producer: 11
}
